newdata/best_model_mlp.pth (torch, 20330 bytes, 13 tensors)

feature_mlp.0.weight f4 [16, 10]
-0.19648501 -0.290942 -0.11981424 0.05220527 -0.112727135 0.07194823 0.41575176 0.14918576
0.14637561 0.3484206 -0.3466678 0.34004587 -0.20789191 -0.066342644 0.09932328 -0.36663368
-0.22080898 -0.12501232 -0.2776675 -0.1736029 -0.10073539 -0.21758792 0.015929736 0.23850007
0.23131496 0.22058468 0.21930976 0.024315625 -0.19111554 0.09366675 0.19778122 -0.09599107
0.3057266 0.15078904 -0.42636973 0.098118 0.09890383 0.26054284 -0.2522596 0.36187327
0.3026752 0.004174801 0.3831572 0.21493565 0.29248297 0.23960459 -0.17187336 0.22104025
0.20715061 0.116680525 -0.30014634 0.23318213 -0.11822967 -0.24588221 -0.41545385 -0.30646554
-0.13903312 0.049639724 0.24527055 0.025765179 -0.32035038 -0.17742512 0.28756452 0.21236458
0.1885086 0.103851244 0.266252 -0.13076188 -0.24971186 0.06255726 -0.1865699 0.25655466
0.074948974 0.20790733 0.23143314 -0.3237204 0.1359442 -0.16917779 0.33881587 0.04951739
-0.1332855 -0.26555473 0.28163505 -0.047590446 0.013482204 0.07668433 0.21292096 -0.36257327
-0.33456662 -0.1063444 -0.004335299 -0.24711344 0.20965973 -0.2878283 0.14873566 -0.15520705
-0.17111675 -0.3701105 0.21941032 -0.02397919 -0.18181427 -0.021174813 0.053573024 -0.3147916
-0.062593 -0.38423455 0.14935781 -0.10688218 0.1416302 -0.28869906 0.0452436 -0.17278664
0.25842223 0.0037911914 0.33675256 -0.18751022 0.0083075855 0.48363936 0.10927061 -0.39011037
0.29675892 -0.06088226 -0.0536813 -0.21527615 0.0639047 -0.253389 -0.2319841 -0.12545787
0.25225773 0.06753045 0.3374241 -0.084911205 0.17392026 0.14749338 -0.13872813 0.1555821
-0.1304979 0.02860944 0.21115176 -0.13607663 -0.38552585 0.03200364 -0.07944712 0.29115546
-0.23446174 -0.025818586 0.1365857 0.083133526 -0.09815989 -0.24052332 -0.21154976 -0.13001445
-0.2390421 0.03802986 -0.39794642 0.24842203 -0.12507963 -0.08093602 0.018735176 -0.19858687
00000000: 5e33 49be 5af6 94be 2b61 f5bd 31d5 553d
00000010: 7cdd e6bd 9859 933d 6add d43e 27c4 183e
00000020: 7de3 153e 2f64 b23e 717e b1be 7e1a ae3e
00000030: 9ee1 54be a7de 87bd 016a cb3d 69b7 bbbe
00000040: c01b 62be 3b03 00be 6f2a 8ebe f5c4 31be
00000050: 5b4e cebd 5ecf 5ebe 147f 823c 5d39 743e
00000060: d4dd 6c3e f3e0 613e bd92 603e 9031 c73c
00000070: cbb3 43be 5ad4 bf3d 2987 4a3e f796 c4bd
00000080: 3288 9c3e 7168 1a3e 224d dabe 17f2 c83d
00000090: 178e ca3d df65 853e 2c28 81be 7447 b93e
000000a0: 3ef8 9a3e c5cc 883b 2e2d c43e 1718 5c3e
000000b0: 54c0 953e e85a 753e 92ff 2fbe 6058 623e
000000c0: 4a1f 543e 33f6 ee3d c8ac 99be 4cc7 6e3e
000000d0: 6622 f2bd 8cc8 7bbe 5eb6 d4be 0de9 9cbe
000000e0: b35e 0ebe 0653 4b3d 3428 7b3e 7f11 d33c
000000f0: f704 a4be eeae 35be a83b 933e 1a76 593e
00000100: 6608 413e f6af d43d 2f52 883e 71e6 05be
00000110: 77b4 7fbe 051e 803d 2e0c 3fbe 225b 833e
00000120: d97e 993d a9e5 543e cffc 6c3e aebe a5be
00000130: f534 0b3e f13c 2dbe 4679 ad3e bfd2 4a3d
00000140: fe7b 08be caf6 87be 7832 903e 33ee 42bd
00000150: 76e4 5c3c ad0c 9d3d f407 5a3e 34a3 b9be
00000160: 514c abbe 18cb d9bd 200f 8ebb 4e0b 7dbe
00000170: 0ab1 563e 3b5e 93be 294e 183e 99ee 1ebe
00000180: 3b39 2fbe 207f bdbe 19ad 603e 0270 c4bc
00000190: 852d 3abe cd76 adbc 636f 5b3d 5d2c a1be
000001a0: c230 80bd 64ba c4be 41f1 183e 0be5 dabd
000001b0: 8207 113e 5dd0 93be 5a51 393d fbee 30be
000001c0: eb4f 843e a375 783b d56a ac3e ae02 40be
000001d0: 8a1c 083c 949f f73e 45c9 df3d 8cbc c7be
000001e0: c9f0 973e ad5f 79bd ece0 5bbd 5a71 5cbe
000001f0: 78e0 823d 34bc 81be 3d8d 6dbe 0778 00be
00000200: ed27 813e 684d 8a3d dac2 ac3e ede5 adbd
00000210: 2718 323e 8108 173e bf0e 0ebe ea50 1f3e
00000220: 3ea1 05be 585e ea3c 2b38 583e ac57 0bbe
00000230: a563 c5be 4016 033d 2cb5 a2bd 5412 953e
00000240: bd16 70be 8081 d3bc 1fdd 0b3e e941 aa3d
00000250: 0d08 c9bd bf4b 76be 80a0 58be 8222 05be
00000260: 74c7 74be 33c5 1b3d a2bf cbbe 5862 7e3e
00000270: e014 00be c9c1 a5bd 837a 993c 5b5a 4bbe

feature_mlp.0.bias f4 [16]
0.04715561 -0.0044697113 -0.21732493 0.09619727 0.008837534 0.13151987 -0.20562346 0.21200566
-0.21896665 0.37139618 0.25741988 0.32405576 0.18644853 0.17464131 -0.038263842 0.1306866
00000000: 3e26 413d a876 92bb 6d8a 5ebe 1303 c53d
00000010: 4ecb 103c 25ad 063e f58e 52be 0318 593e
00000020: cb38 60be a427 be3e 8acc 833e a3ea a53e
00000030: 5dec 3e3e 2cd5 323e 8cba 1cbd b5d2 053e

feature_mlp.2.weight f4 [16, 16]
-0.1393512 0.012918219 0.27902117 0.0878206 0.2905282 0.08467565 0.13422611 0.24679686
0.16915005 -0.048848744 -0.28857136 -0.051850263 0.14180115 0.014266881 0.25915667 0.13562126
-0.095714666 -0.13342716 0.042124193 0.31995195 0.169278 -0.38123432 0.053762462 -0.15376772
0.078365445 0.13339923 -0.35849667 0.24736343 -0.0072625168 0.3195577 -0.037530538 -0.043950204
-0.04171788 -0.028121788 -0.20656735 0.22684416 0.15741698 -0.3391107 -0.024026534 0.03375036
-0.04467794 -0.016710917 0.14900903 0.294952 0.20686878 0.1673775 -0.052276753 -0.08055213
0.07655073 -0.06116944 0.0347791 0.10630659 0.19040453 -0.040064566 -0.15298939 -0.3006531
-0.10591086 -0.32092735 -0.12246849 -0.2569367 -0.49909386 -0.12548983 0.17044921 0.32471108
-0.10347566 -0.18281311 0.16203152 0.022523364 0.16231856 0.038176127 -0.045400437 -0.26745355
0.0030828575 0.19654773 -0.019001693 0.21488298 -0.1074038 -0.06730602 -0.27048275 -0.2729861
0.090114586 -0.10776764 0.27157158 0.090062976 -0.13869752 0.030443845 0.23463462 -0.15719482
0.19986041 -0.13433394 0.20306054 0.17921294 0.02285935 -0.1557053 0.17363395 -0.10425987
-0.18973619 0.22059847 -0.122224316 0.121553585 -0.06204235 0.0720067 -0.17141113 -0.15072608
-0.03912615 0.29530704 0.2693217 0.08836063 -0.19627483 0.035951864 0.043768853 0.32711545
0.14980526 0.27342522 0.1868497 -0.003494287 -0.006401561 -0.17878477 -0.12033792 -0.044742715
-0.09773077 0.2227465 -0.15129183 0.176893 0.13164449 -0.13098024 0.24813296 -0.12883817
0.18599166 0.3113528 0.20133814 -0.0424628 -0.078062505 0.25570568 0.18988119 0.44503248
-0.15377991 0.21710262 -0.13197757 -0.26940408 -0.16648537 -0.04782512 0.119673535 -0.18091378
0.14386915 0.2787158 0.0890535 -0.26059118 -0.12089845 0.17744768 -0.047039617 0.3154194
-0.25005135 0.17554703 -0.008209379 -0.11610275 -0.17443182 0.14667737 0.15004884 -0.12479338
-0.0066717057 -0.24506213 -0.19224109 0.11542611 -0.13435419 -0.31197554 -0.24990523 0.29722884
-0.22065158 -0.110714406 -0.13782859 0.2749644 -0.059653316 -0.12449508 -0.12301661 -0.039749857
-0.063187964 -0.08399078 -0.1776087 0.16251984 0.06899243 -0.12553708 -0.1458332 0.16044258
0.08307579 0.23843849 0.20915179 -0.108569324 0.050368056 -0.03154421 0.041484155 0.14831196
-0.2297123 0.013511721 0.07386599 0.07098924 -0.2250263 0.27671996 0.12351805 0.15058063
0.30701652 0.15917069 0.31761253 0.019862937 0.19346707 -0.06233924 0.21393563 0.10797942
-0.18770482 0.027631382 0.048423417 -0.03840565 -0.21997052 -0.050609782 0.20866655 -0.08618707
0.3618445 0.2382926 0.24302036 -0.14570403 0.16816308 0.16420333 0.046557687 0.30900148
-0.13245721 0.07076718 0.23604183 0.086735494 0.21275268 0.30777702 -0.12958004 -0.11006556
0.27900928 0.28313625 0.2553107 0.30266455 0.1580832 -0.21378106 0.15745546 -0.029302942
-0.059317235 0.006037061 0.15314612 -0.29212233 -0.16728652 0.016230885 0.019825041 0.20106858
-0.049234048 -0.10602675 0.075809605 -0.18640834 -0.14442226 -0.14269155 0.18719184 -0.020728314
00000000: 15b2 0ebe f0a6 533c dddb 8e3e 49db b33d
00000010: 1dc0 943e 6d6a ad3d 9272 093e 51b8 7c3e
00000020: ac35 2d3e 9f15 48bd a0bf 93be f160 54bd
00000030: 5234 113e a3bf 693c 2fb0 843e 4de0 0a3e
00000040: 0d06 c4bd 21a1 08be 6b8a 2c3d bed0 a33e
00000050: 3657 2d3e 2531 c3be 0736 5c3d 4975 1dbe
00000060: 107e a03d cf99 083e e08c b7be d74c 7d3e
00000070: 68fa edbb 119d a33e 9fb9 19bd 2105 34bd
00000080: 5ee0 2abd aa5f e6bc 6486 53be d649 683e
00000090: eb31 213e eb9f adbe 4bd3 c4bc d13d 0a3d
000000a0: 3700 37bd 55e5 88bc d395 183e f303 973e
000000b0: 69d5 533e 0265 2b3e 2620 56bd 84f8 a4bd
000000c0: a1c6 9c3d cf8c 7abd 8874 0e3d 45b7 d93d
000000d0: 68f9 423e be1a 24bd 40a9 1cbe 34ef 99be
000000e0: cbe7 d8bd 9750 a4be c2d0 fabd 358d 83be
000000f0: 3b89 ffbe 6880 00be 3d8a 2e3e 8840 a63e
00000100: 0ceb d3bd 5c33 3bbe 97eb 253e eb82 b83c
00000110: d636 263e 925e 1c3d cff5 39bd acef 88be
00000120: c409 4a3b cf43 493e 70a9 9bbc 490a 5c3e
00000130: 86f6 dbbd bdd7 89bd b77c 8abe d6c4 8bbe
00000140: ff8d b83d 48b5 dcbd 6e0b 8b3e f072 b83d
00000150: b906 0ebe 5f65 f93c 0f44 703e aef7 20be
00000160: 35a8 4c3e d68e 09be 1aef 4f3e 9983 373e
00000170: 8843 bb3c 3671 1fbe 19cd 313e 3386 d5bd
00000180: 344a 42be 91e4 613e be50 fabd 16f1 f83d
00000190: 1f20 7ebd 4078 933d 6686 2fbe f057 1abe
000001a0: be42 20bd 7c32 973e 89e4 893e 6bf6 b43d
000001b0: 45fc 48be 4342 133d f846 333d ad7b a73e
000001c0: 8d66 193e 64fe 8b3e 8755 3f3e 6800 65bb
000001d0: 30c4 d1bb 5b13 37be ba73 f6bd 2344 37bd
000001e0: 1227 c8bd a917 643e 3fec 1abe 7023 353e
000001f0: d0cd 063e af1f 06be 9116 7e3e 27ee 03be
00000200: 9974 3e3e a269 9f3e 962b 4e3e 79ed 2dbd
00000210: 3cdf 9fbd dbeb 823e 3770 423e 4cdb e33e
00000220: 7b78 1dbe 2650 5e3e 2125 07be 55ef 89be
00000230: 247b 2abe 46e4 43bd 6617 f53d 7641 39be
00000240: 6f52 133e d6b3 8e3e ae61 b63d 356c 85be
00000250: 9b99 f7bd d8b4 353e 9dac 40bd a77e a13e
00000260: bb06 80be 9ac2 333e a280 06bc 47c7 edbd
00000270: 419e 32be 9832 163e 67a6 193e ac93 ffbd
00000280: 539e dabb 91f1 7abe d9da 44be 8664 ec3d
00000290: 2594 09be 42bb 9fbe 28e7 7fbe 612e 983e
000002a0: 7df2 61be 3cbe e2bd f022 0dbe 22c8 8c3e
000002b0: 0957 74bd 47f7 febd 22f0 fbbd bfd0 22bd
000002c0: b168 81bd 5c03 acbd 0edf 35be 9a6b 263e
000002d0: e74b 8d3d cb8c 00be 4c55 15be 0f4b 243e
000002e0: a423 aa3d 3829 743e e32b 563e 9859 debd
000002f0: bc4e 4e3d 8034 01bd 4aeb 293d 17df 173e
00000300: b339 6bbe 4460 5d3c 0d47 973d cf62 913d
00000310: 4b6d 66be 3dae 8d3e 08f7 fc3d cf31 1a3e
00000320: 4531 9d3e a4fd 223e 1c9e a23e 99b7 a23c
00000330: 3b1c 463e 6e57 7fbd f111 5b3e 5024 dd3d
00000340: b135 40be 355b e23c a257 463d 3e4f 1dbd
00000350: f43f 61be 344c 4fbd afac 553e d982 b0bd
00000360: af43 b93e fa02 743e 54da 783e 7033 15be
00000370: f132 2c3e eb24 283e 46b3 3e3d 7135 9e3e
00000380: dda2 07be 62ee 903d f3b4 713e 61a2 b13d
00000390: d7db 593e f394 9d3e a1b0 04be 0d6a e1bd
000003a0: 4eda 8e3e 3cf7 903e 16b8 823e d9f6 9a3e
000003b0: 90e0 213e 6ce9 5abe 013c 213e b90c f0bc
000003c0: a1f6 72bd 8ad2 c53b 56d2 1c3e 0f91 95be
000003d0: 284d 2bbe a2f6 843c 2068 a23c ece4 4d3e
000003e0: a4a9 49bd 8d24 d9bd 1142 9b3d d4e1 3ebe
000003f0: 6ee3 13be bc1d 12be 38af 3f3e 6dce a9bc

feature_mlp.2.bias f4 [16]
-0.097029634 0.035321508 0.1511497 0.22501479 0.047448955 0.18860742 0.21596311 0.24055865
0.02455032 -0.015624762 -0.022296 0.31557024 -0.12035683 -0.00663765 0.30768034 -0.18148425
00000000: 79b7 c6bd 49ad 103d fdc6 1a3e 476a 663e
00000010: d659 423d 4e22 413e 6f25 5d3e 0255 763e
00000020: c11d c93c 00ff 7fbc 1aa6 b6bc 6c92 a13e
00000030: a47d f6bd a580 d9bb 4788 9d3e 02d7 39be

feature_mlp.4.weight f4 [32, 16]
-0.30536696 -0.36544597 0.05004367 -0.2535576 0.16227452 0.032884303 -0.084636316 0.062087014
-0.24112137 0.08062916 -0.015955951 0.16268967 -0.052944526 0.28907847 0.06941807 -0.24162957
0.0019825655 -0.16621724 0.17755574 0.20546097 -0.054917295 -0.121634156 0.20679097 0.28406042
0.13893896 0.24637333 -0.07176223 -0.14709917 -0.20751773 -0.2450034 0.045003466 -0.18638451
0.15527952 -0.19723326 -0.06514814 -0.11440074 0.33240908 0.09322106 0.24362648 0.27429456
-0.13856079 0.07840973 -0.2777288 -0.23082219 0.080740824 0.08659459 -0.16386798 0.2056821
0.0228379 0.02859447 -0.008269094 0.10066641 -0.11938275 0.034061514 0.2444352 -0.21797872
0.016982611 -0.038791552 0.39950824 0.05716799 -0.05460961 0.23697264 0.13173465 0.21085362
-0.2662849 -0.003859837 0.019525956 -0.19130181 0.16194513 0.1881541 0.29125217 -0.025243355
0.052979603 -0.11569329 0.020145737 0.042897534 0.1554069 -0.13821574 0.15835801 0.16209364
-0.19859783 0.11352175 0.14998955 -0.33055344 -0.015764471 -0.16827978 -0.06853819 0.027856626
0.16113742 0.06428668 -0.25024462 0.11116564 0.047926415 0.20337856 0.056719076 -0.07555114
-0.25545293 -0.03068199 -0.07218557 0.2215405 -0.18473494 -0.1154795 -0.01819752 -0.020362748
0.16383886 -0.24664865 0.137116 0.22496076 -0.21676314 -0.08238181 -0.24081151 -0.0819042
-0.1968013 -0.20014925 0.08805539 0.27636668 -0.13843288 0.20707941 0.108517505 0.23691952
0.2755133 0.1286444 -0.2617517 0.12560438 -0.19015518 -0.063012496 -0.19773768 -0.18282066
0.3013357 0.3454131 0.14154859 -0.15808359 0.25570074 -0.21334408 0.20331092 0.22277276
0.0014758409 -0.102419905 -0.32118803 0.25365862 0.06687102 0.0148976445 0.14222321 -0.20507124
0.08610222 -0.063963175 -0.34330374 -0.27826497 -0.15042579 0.03309899 0.25291193 -0.003389418
-0.29511592 0.12030932 0.25167042 0.22450835 0.13610098 -0.0012462545 -0.10776137 0.066849455
-0.11875692 -0.026047021 0.0060417354 0.19677618 -0.16917592 -0.010462403 -0.2131843 -0.20632815
-0.24206263 0.21422395 0.24704382 -0.24765313 -0.12618104 0.021211982 -0.08223128 0.15391883
-0.15629877 -0.02532202 -0.21932626 0.21125215 0.22994927 -0.07756949 0.12600054 0.20385976
-0.19651055 0.038708806 -0.13020304 -0.0945379 0.11612078 0.1812394 -0.22455584 0.00687775
0.25931048 0.112912215 0.15791205 -0.33072734 0.09651177 0.073931456 -0.15718658 0.13870296
0.31998774 0.39402857 0.093800016 -0.19903669 -0.1702829 -0.19845405 0.1593301 0.17067534
0.13618693 -0.1733283 -0.3394054 0.13681352 -0.1165328 -0.0077948477 0.25859922 -0.23010768
-0.07152767 -0.20237634 0.005147901 0.19005732 0.23280956 0.13239485 0.28268537 0.18432738
0.037168447 0.08360904 0.07660099 -0.04576015 -0.049523327 0.189598 0.29020742 0.12826474
0.19889979 0.22170761 0.06231293 -0.22796139 0.24776068 0.07146067 -0.2206255 0.16869226
0.18925762 -0.22631153 0.2202329 0.362583 0.28849292 0.26210555 -0.110898316 0.20310584
0.029216329 -0.24642478 -0.04458198 0.09427758 0.2225943 0.116362534 0.05209792 -0.10228431
00000000: 0f59 9cbe bc1b bbbe 97fa 4c3d 4dd2 81be
00000010: 4b2b 263e b1b1 063d ce55 adbd f44e 7e3d
00000020: 85e8 76be e720 a53d 0eb6 82bc 1f98 263e
00000030: 5cdc 58bd 1802 943e 102b 8e3d be6d 77be
00000040: eeed 013b da34 2abe 2cd1 353e 5c64 523e
00000050: f5f0 60bd 541b f9bd 03c1 533e 5e70 913e
00000060: 0446 0e3e 4a49 7c3e 13f8 92bd 2aa1 16be
00000070: 877f 54be 2ce2 7abe 8e55 383d 95db 3ebe
00000080: 9801 1f3e 84f7 49be 636c 85bd ef4a eabd
00000090: 8631 aa3e afea be3d 3879 793e 5670 8c3e
000000a0: e1e2 0dbe 4895 a03d 7832 8ebe a75c 6cbe
000000b0: 725b a53d 8158 b13d 02cd 27be 549e 523e
000000c0: 8c16 bb3c f33e ea3c 187b 07bc 312a ce3d
000000d0: f17e f4bd 1684 0b3d 394d 7a3e d035 5fbe
000000e0: 1e1f 8b3c e4e3 1ebd 588c cc3e fb28 6a3d
000000f0: 54ae 5fbd f5a8 723e 73e5 063e 03ea 573e
00000100: 7f56 88be 52f5 7cbb e6f4 9f3c 9fe4 43be
00000110: f2d4 253e 78ab 403e 011f 953e 27cb cebc
00000120: 2401 593d 9bf0 ecbd ac08 a53c 53b5 2f3d
00000130: fd22 1f3e 6d88 0dbe 9a28 223e e0fb 253e
00000140: 3b5d 4bbe 177e e83d dc96 193e 4d3e a9be
00000150: 7e24 81bc 8951 2cbe c05d 8cbd 9433 e43c
00000160: 3501 253e bca8 833d 1020 80be d0aa e33d
00000170: 7d4e 443d 7842 503e 4352 683d 8eba 9abd
00000180: baca 82be cc58 fbbc 07d6 93bd 83db 623e
00000190: 282b 3dbe 8480 ecbd f712 95bc c7cf a6bc
000001a0: 60c5 273e 7791 7cbe 2368 0c3e 1d5c 663e
000001b0: 28f7 5dbe cbb7 a8bd 4b97 76be 64bd a7bd
000001c0: 4886 49be edf3 4cbe 6256 b43d ef7f 8d3e
000001d0: 59c1 0dbe a00c 543e 6d3e de3d 089b 723e
000001e0: 1410 8d3e 5cbb 033e 5204 86be 6f9e 003e
000001f0: 0ab8 42be b20c 81bd bf7b 4abe 5735 3bbe
00000200: ac48 9a3e fcd9 b03e 1df2 103e aae0 21be
00000210: 35eb 823e df76 5abe bd30 503e 8b1e 643e
00000220: 0171 c13a 87c1 d1bd c272 a4be 8bdf 813e
00000230: acf3 883d 4015 743c f6a2 113e 32fe 51be
00000240: 5c56 b03d 20ff 82bd 82c5 afbe bf78 8ebe
00000250: 3809 1abe ce92 073d ac7d 813e ff20 5ebb
00000260: 6f19 97be bc64 f63d f2da 803e 84e5 653e
00000270: 0e5e 0b3e 5d59 a3ba feb1 dcbd 5ee8 883d
00000280: d436 f3bd 9060 d5bc c0f9 c53b b27f 493e
00000290: 743c 2dbe 806a 2bbc fc4c 5abe b047 53be
000002a0: 44df 77be 865d 5b3e 0ef9 7c3e c898 7dbe
000002b0: 9a35 01be c0c4 ad3c e068 a8bd e69c 1d3e
000002c0: c90c 20be 2070 cfbc 1097 60be 7c52 583e
000002d0: d277 6b3e c1dc 9ebd 4906 013e 9dc0 503e
000002e0: 103a 49be 208d 1e3d f253 05be 169d c1bd
000002f0: bbd0 ed3d d296 393e f7f1 65be c05e e13b
00000300: 58c4 843e 853e e73d b2b3 213e 1855 a9be
00000310: f6a7 c53d 6069 973d 85f5 20be 2608 0e3e
00000320: 6fd5 a33e 1dbe c93e 391a c03d 46d0 4bbe
00000330: a45e 2ebe 8a37 4bbe 6e27 233e 84c5 2e3e
00000340: 9674 0b3e f97c 31be 8bc6 adbe d818 0c3e
00000350: c0a8 eebd ec6b ffbb 1e67 843e 59a1 6bbe
00000360: 197d 92bd be3b 4fbe b9af a83b 639e 423e
00000370: a165 6e3e 8492 073e 23bc 903e 51c0 3c3e
00000380: f13d 183d 373b ab3d fbe0 9c3d ff6e 3bbd
00000390: f9d8 4abd fa25 423e 1196 943e d557 033e
000003a0: 63ac 4b3e 5207 633e d83b 7f3d b66e 69be
000003b0: fab4 7d3e f959 923d a7eb 61be aabd 2c3e
000003c0: c0cc 413e 36be 67be bc84 613e 7ba4 b93e
000003d0: 58b5 933e b332 863e a81e e3bd fafa 4f3e
000003e0: 1557 ef3c c756 7cbe 989b 36bd 9b14 c13d
000003f0: c3ef 633e 7b4f ee3d a164 553d 707a d1bd

feature_mlp.4.bias f4 [32]
0.031673368 0.2491898 0.049719725 0.000113520844 -0.1408004 0.23887663 -0.06915174 -0.038611867
0.16589849 0.16206126 -0.22354853 -0.110916555 -0.11638519 0.03986003 0.08247843 -0.15195905
-0.11559945 -0.03128413 0.042551573 0.25103092 0.3917574 0.27936625 -0.12999833 0.056538418
-0.25012606 -0.05100757 -0.20803209 0.02803989 0.16175035 0.098595224 -0.06745433 -0.01842464
00000000: efbb 013d 9c2b 7f3e e9a6 4b3d 0a12 ee38
00000010: fb2d 10be 139c 743e 6d9f 8dbd 7a27 1ebd
00000020: 4be1 293e 63f3 253e e8e9 64be 3828 e3bd
00000030: 5c5b eebd 4544 233d 73ea a83d 279b 1bbe
00000040: 68bf ecbd ca23 00bd 8f4a 2e3d 2087 803e
00000050: 6d94 c83e 1809 8f3e 481e 05be d494 673d
00000060: 8610 80be 50ed 50bd 5d06 55be e9b3 e53c
00000070: e2a1 253e 4bec c93d 7f25 8abd 45ef 96bc

classifier.0.weight f4 [32, 64]
-0.095091864 -0.043662116 0.011021843 0.025044683 0.038117044 -0.03737142 0.11152449 -0.11462585
0.07008876 0.0009763728 -0.023621455 0.13459356 -0.029329812 -0.036954626 -0.010835365 0.03821821
0.01649017 0.16088156 0.061004475 -0.043363854 -0.26180065 0.09571815 -0.11747474 -0.030026928
-0.15793031 0.100026384 -0.09740861 0.09701201 0.10198776 0.041633654 0.01166319 -0.09511754
-0.07846449 0.07546085 -0.06513968 0.017776027 -0.051309064 0.03314263 0.077220164 0.06377854
0.08113086 0.06914978 0.06527315 0.0328827 0.21222796 -0.12966958 0.039097328 -0.021472722
0.104029916 -0.03826524 -0.0962359 0.05436893 0.03504103 0.137607 -0.022212151 0.21608387
0.040368445 -0.1234092 -0.062937394 -0.12448407 -0.08095341 -0.021203542 0.027038125 0.0012104796
0.07182023 -0.08838012 0.10391606 0.033323348 0.15015844 -0.10821949 -0.0048817424 -0.037539024
-0.049197458 0.109786175 -0.12326421 -0.025999643 -0.07134171 0.1024605 0.0859259 0.0827869
-0.014673883 0.15275054 0.07683216 -0.10554823 -0.025501743 0.089295246 0.006793063 -0.023413762
-0.008323708 0.027517691 0.044035047 0.21573047 0.014485351 0.042778417 0.18764721 -0.009804289
0.06670776 0.17600232 -0.08375051 0.11169474 -0.15346229 0.13898966 -0.04790121 0.06749606
0.10287281 -0.09201556 -0.044421375 0.090572044 -0.0017246515 -0.135905 -0.005681425 0.08621842
0.09947676 -0.055907536 0.022941211 -0.03219502 0.04064008 -0.094309136 0.20674567 0.006447448
0.069708675 -0.013852909 -0.005935839 -0.13371508 -0.118351705 0.041271824 -0.10457959 0.12161518
0.14009932 0.109482996 0.014350874 0.041855853 -0.07523355 0.07774994 -0.008495819 -0.043133143
0.058023263 0.120586716 -0.01685381 -0.13052465 -0.04104386 0.057563115 -0.027132792 -0.13152844
0.06009602 -0.08130239 0.09017904 0.19242495 0.1485584 -0.02611501 0.21056777 0.08331756
0.021389771 -0.11503196 0.079842515 -0.104290664 0.052217767 0.1527226 0.08039628 0.11927104
0.15577638 0.04145162 0.09967852 0.064063445 -0.018564407 0.0008950289 -0.07253605 -0.16130564
-0.024929956 0.09654411 -0.08685374 -0.014456711 -0.13911073 0.14301525 -0.032314155 0.12058569
-0.08402167 0.16854167 0.058454234 0.11004761 -0.19643521 0.08156665 0.028905984 -0.10445674
-0.05380797 -0.032338604 -0.08865985 0.09674796 0.0135201765 0.017708877 0.1703419 0.11895839
-0.0700173 0.1141622 -0.017845815 0.024492785 0.030328646 0.22823486 0.06636924 0.08164695
0.09875496 0.081725 -0.11646351 -0.06725575 0.17590117 -0.07970363 0.1161271 -0.050259825
-0.0617917 0.07532363 -0.03485954 -0.021896306 0.082043916 0.04755337 0.2235176 0.24431871
0.13634329 -0.11209661 -0.09547801 -0.119830295 0.109587535 -0.021185154 -0.10601564 -0.0839274
0.08633186 -0.15463996 0.0004790719 0.07633085 -0.049098745 -0.024174513 0.0045213327 -0.13582277
0.07347133 0.015824785 0.11267534 0.070117354 -0.10271659 0.120498054 -0.01629003 0.116760276
-0.017698169 0.17873481 0.10962225 -0.13701183 -0.054763153 -0.08175934 -0.07289747 0.037750874
-0.026886418 0.054605648 -0.09519718 -0.003804234 0.12213226 -0.11453106 0.16998987 0.10254695
00000000: 86bf c2bd 0cd7 32bd f694 343c 822a cd3c
00000010: 9e20 1c3d c612 19bd f466 e43d f5c0 eabd
00000020: b28a 8f3d 45f3 7f3a c881 c1bc e5d2 093e
00000030: 1345 f0bc bc5d 17bd d186 31bc b38a 1c3d
00000040: 6516 873c 23be 243e d4df 793d 4c9e 31bd
00000050: bc0a 86be e107 c43d 9996 f0bd 08fb f5bc
00000060: 7cb8 21be a2da cc3d 2a7e c7bd 3cae c63d
00000070: f5de d03d 0d88 2a3d f716 3f3c fccc c2bd
00000080: feb1 a0bd 388b 9a3d f467 85bd 089f 913c
00000090: 7429 52bd 91c0 073d 9b25 9e3d 539e 823d
000000a0: f027 a63d 669e 8d3d eead 853d 03b0 063d
000000b0: 4952 593e 1ac8 04be 8524 203d 90e7 afbc
000000c0: a30d d53d 03bc 1cbd 5417 c5bd f5b1 5e3d
000000d0: 2f87 0f3d d9e8 0c3e 42f6 b5bc 1745 5d3e
000000e0: 6259 253d f6bd fcbd 52e5 80bd 81f1 febd
000000f0: e7ca a5bd 0db3 adbc 0f7f dd3c f5a8 9e3a
00000100: 7c16 933d a300 b5bd f1d1 d43d 107e 083d
00000110: 22c3 193e 2ea2 ddbd 06f7 9fbb 85c2 19bd
00000120: 4683 49bd 93d7 e03d f271 fcbd 34fd d4bc
00000130: 9a1b 92bd d0d6 d13d ebf9 af3d 2e8c a93d
00000140: ba6a 70bc a36a 1c3e 2e5a 9d3d ac29 d8bd
00000150: 08e9 d0bc 6de0 b63d 5898 de3b 38ce bfbc
00000160: 2960 08bc c86c e13c 185e 343d 73e8 5c3e
00000170: f753 6d3c 6c38 2f3d 9726 403e 2ba2 20bc
00000180: 149e 883d f439 343e 6385 abbd 36c0 e43d
00000190: 3825 1dbe 4e53 0e3e 0f34 44bd 603b 8a3d
000001a0: fbae d23d a772 bcbd 30f3 35bd d67d b93d
000001b0: b40d e2ba ae2a 0bbe 3f2b babb 4893 b03d
000001c0: 79ba cb3d 4dff 64bd 35ef bb3c edde 03bd
000001d0: 3676 263d 2625 c1bd 23b5 533e 1d45 d33b
000001e0: 6cc3 8e3d 50f7 62bc 6d81 c2bb 9bec 08be
000001f0: 6162 f2bd a50c 293d d32d d6bd 6111 f93d
00000200: 3276 0f3e 9f38 e03d ee1f 6b3c 0b71 2b3d
00000210: 0c14 9abd 5c3b 9f3d 0c32 0bbc 61ac 30bd
00000220: cda9 6d3d 2bf6 f63d 0011 8abc 41a8 05be
00000230: 9b1d 28bd 4dc7 6b3d 9745 debc 64af 06be
00000240: 3f27 763d de81 a6bd caaf b83d 0c0b 453e
00000250: b11f 183e 25ef d5bc 149f 573e 66a2 aa3d
00000260: 9a39 af3c e095 ebbd 7984 a33d 5896 d5bd
00000270: 4ce2 553d 5063 1c3e cea6 a43d 6044 f43d
00000280: d883 1f3e 2dc9 293d 4024 cc3d b233 833d
00000290: 6214 98bc 5fa0 6a3a c88d 94bd 4e2d 25be
000002a0: e839 ccbc ebb8 c53d 60e0 b1bd d7db 6cbc
000002b0: 0b73 0ebe 9772 123e d95b 04bd a1f5 f63d
000002c0: 8e13 acbd 3096 2c3e b56d 6f3d a460 e13d
000002d0: 5026 49be 6a0c a73d 3ecc ec3c 6aed d5bd
000002e0: bf65 5cbd 7c75 04bd 4c93 b5bd cb23 c63d
000002f0: bb83 5d3c 3512 913c 1b6e 2e3e 75a0 f33d
00000300: 3b65 8fbd dfcd e93d 6331 92bc 18a5 c83c
00000310: c873 f83c 66b6 693e 99ec 873d 8436 a73d
00000320: 0a40 ca3d 705f a73d 6c84 eebd 62bd 89bd
00000330: 701f 343e a83b a3bd 0cd4 ed3d 3fdd 4dbd
00000340: 4b19 7dbd 4643 9a3d e1c8 0ebd e25f b3bc
00000350: a406 a83d 53c7 423d cce1 643e af2e 7a3e
00000360: 939d 0b3e e892 e5bd fa89 c3bd 9669 f5bd
00000370: 6e6f e03d 7d8c adbc ba1e d9bd 21e2 abbd
00000380: c2ce b03d f059 1ebe f12b fb39 5953 9c3d
00000390: c41b 49bd a109 c6bc b027 943b 2015 0bbe
000003a0: 2378 963d fba2 813c 54c2 e63d b099 8f3d
000003b0: 135d d2bd afc7 f63d ab72 85bc 0320 ef3d
000003c0: c0fb 90bc 4206 373e a181 e03d d44c 0cbe
000003d0: 544f 60bd 7171 a7bd 454b 95bd a9a0 1a3d
000003e0: e840 dcbc 2caa 5f3d bdf6 c2bd 7550 79bb
000003f0: 7a20 fa3d 438f eabd d311 2e3e 2304 d23d

classifier.0.bias f4 [32]
0.15838197 0.13112068 -0.09774343 -0.066863745 0.12839417 0.033694074 -0.10006023 0.26850072
0.20433658 0.26059097 -0.072660625 0.063134275 0.043259185 0.053471398 0.15817206 0.120992556
-0.07587366 0.06596768 0.12466376 0.024517918 0.17063425 -0.032989394 0.08511445 0.021801926
0.049483147 0.05872139 -0.010987328 -0.034028146 -0.04469178 0.00049344776 0.11617694 -0.012893682
00000000: e22e 223e 8044 063e b52d c8bd dcef 88bd
00000010: c379 033e cc02 0a3d 61ec ccbd ed78 893e
00000020: 9c3d 513e 2e6c 853e 18cf 94bd 8b4c 813d
00000030: 8b30 313d d304 5b3d dbf7 213e f2ca f73d
00000040: a663 9bbd 101a 873d b74f ff3d cdd9 c83c
00000050: bfba 2e3e e31f 07bd 7c50 ae3d f499 b23c
00000060: d7ae 4a3d d785 703d 3204 34bc 1961 0bbd
00000070: ba0e 37bd b85a 013a 2dee ed3d 0640 53bc

classifier.2.weight f4 [16, 32]
0.010348573 0.10305409 0.010959044 -0.12755182 -0.09253551 -0.09847257 -0.045993865 0.049130753
0.065024495 -0.16399822 -0.021361142 -0.15359724 -0.032013863 -0.1407449 -0.04570052 -0.115933836
-0.13758093 -0.12835406 0.124650314 0.043491915 0.0791897 -0.039479584 0.121144906 -0.0022904128
-0.17515665 0.03747487 0.055764392 0.13830747 0.098667994 0.16624703 0.11988644 -0.051233873
-0.1539783 -0.1648146 0.13120142 0.19697249 0.08565104 0.05933051 -0.033674415 -0.015521269
0.117512226 0.14075957 -0.06626064 -0.103186905 0.3185414 0.112490565 -0.0878693 0.14617509
0.12377855 0.18996535 0.067521825 0.02820774 -0.03675263 -0.04770347 -0.07505427 0.036959913
-0.026984164 -0.105926774 -0.15124995 0.041678816 -0.1326712 0.12447028 0.122021295 -0.062448423
-0.02204698 0.059870157 0.22224858 0.096983604 -0.025011355 0.008900344 0.15780833 -0.24431828
-0.098651215 0.14375801 0.015116122 -0.14358003 0.089691296 0.049509887 -0.25790218 0.27765653
0.14878832 0.24896967 -0.12260081 0.022955291 -0.037324507 0.09861402 -0.058289703 0.07948245
0.20810449 -0.12759383 -0.1596346 0.14024752 -0.09182694 0.2573904 -0.09122273 0.12483831
0.13890572 0.09604708 -0.02895051 -0.01727115 0.10523421 0.08833192 -0.15443268 0.28760302
0.24952868 0.039425813 0.019839851 0.079727896 -0.019536603 -0.054445792 -0.00283445 -0.0634737
0.0033577161 -0.035447624 0.15966511 -0.044141967 0.10989758 -0.0023482952 0.25268054 0.021790506
-0.08020632 -0.007816563 -0.16935134 -0.21616068 0.22916438 -0.19072756 0.040991414 0.20000032
-0.040445317 0.20012885 0.125544 -0.15188423 0.038214646 -0.04603358 0.0653988 0.10067756
0.25327715 0.23608802 0.036367968 0.08632926 -0.15731968 -0.056393553 -0.07031092 0.011407632
-0.0665521 -0.08074776 0.07772022 0.15425931 0.049702838 -0.049296618 0.012325617 0.07269421
-0.042531796 0.13895579 0.069618925 -0.173935 0.036759436 -0.13370357 -0.05949812 0.1635637
-0.04342241 0.25280407 -0.13417992 0.008708396 0.10652544 0.14589411 0.07564257 0.22867854
0.3040353 0.22031002 -0.18687902 0.16510446 -0.02548278 -0.10248527 0.15836012 -0.2330521
-0.16117902 -0.13619845 0.25352016 0.041444037 0.18863459 -0.05769335 0.086437345 -0.07852443
-0.08014535 0.20026553 0.023897046 -0.13489902 0.015076385 -0.13098004 0.15223289 0.12845007
-0.08002134 0.024887564 -0.08118774 -0.084765315 0.12486583 -0.11596477 0.17156322 -0.04026354
-0.1983552 -0.07875608 -0.1135802 0.0287753 -0.19123043 -0.18107179 0.07375138 0.16041885
-0.08243835 0.052426968 0.06816719 0.13862048 0.023282126 0.10653331 -0.14284252 -0.0988065
0.028703248 0.100592 -0.053441286 0.16588557 -0.008584614 0.12925318 -0.04572554 -0.14749643
-0.14383988 -0.053584516 -0.035611436 0.08145021 -0.017655069 -0.073375426 -0.14746812 -0.07998038
-0.14277656 -0.13725114 0.08621645 -0.110926926 -0.050900992 0.10827184 -0.03036551 -0.17246619
-0.09362534 -0.14978768 -0.09375749 0.010840822 -0.11013018 0.0028598416 0.10478026 0.14839533
-0.1352103 -0.18160188 0.10184019 -0.12054588 -0.079368584 0.006086113 -0.03042406 0.08263956
00000000: 108d 293c 060e d33d 908d 333c f29c 02be
00000010: 4283 bdbd fdab c9bd 1064 3cbd 543d 493d
00000020: 902b 853d 26ef 27be 90fd aebc 9848 1dbe
00000030: f820 03bd 6e1f 10be 7830 3bbd b86e edbd
00000040: 04e2 0cbe 3f6f 03be aa48 ff3d 9424 323d
00000050: 362e a23d 58b5 21bd d21a f83d c01a 16bb
00000060: 445c 33be 407f 193d 3469 643d 79a0 0d3e
00000070: 7212 ca3d a93c 2a3e 0687 f53d 9cda 51bd
00000080: 7dac 1dbe 29c5 28be aa59 063e 28b3 493e
00000090: d069 af3d 8d04 733d 2fee 09bd ec4c 7ebc
000000a0: 40aa f03d 4723 103e a9b3 87bd a853 d3bd
000000b0: dc17 a33e 7461 e63d d2f4 b3bd ecae 153e
000000c0: 9c7f fd3d 4786 423e e248 8a3d eb13 e73c
000000d0: ed89 16bd b764 43bd 0eb6 99bd 4763 173d
000000e0: e50d ddbc 23f0 d8bd 44e1 1abe 68b7 2a3d
000000f0: f6da 07be 46ea fe3d 4de6 f93d ebc9 7fbd
00000100: de9b b4bc 693a 753d 2295 633e 579f c63d
00000110: 9de4 ccbc c0d2 113c 8298 213e 922e 7abe
00000120: a609 cabd 4d35 133e 9ca9 773c a506 13be
00000130: 12b0 b73d e1ca 4a3d c10b 84be ff28 8e3e
00000140: f75b 183e e8f1 7e3e 2216 fbbd bc0c bc3c
00000150: 95e1 18bd 26f6 c93d 2fc1 6ebd b2c7 a23d
00000160: 5819 553e f5a7 02be 4177 23be 0c9d 0f3e
00000170: c30f bcbd adc8 833e fcd2 babd 3aab ff3d
00000180: 4d3d 0e3e 55b4 c43d 9f29 edbc 3a7c 8dbc
00000190: 0985 d73d 5ee7 b43d 9a23 1ebe b440 933e
000001a0: 7284 7f3e f67c 213d 2f87 a23c 6148 a33d
000001b0: 3a0b a0bc 8d02 5fbd 2ec2 39bb 80fe 81bd
000001c0: 210d 5c3b 8731 11bd 407f 233e 35ce 34bd
000001d0: fc11 e13d dbe5 19bb 585f 813e 0182 b23c
000001e0: 3643 a4bd 0b11 00bc 706a 2dbe 3a59 5dbe
000001f0: 11aa 6a3e 164e 43be 9de6 273d e2cc 4c3e
00000200: fda9 25bd 94ee 4c3e 9b8e 003e 8a87 1bbe
00000210: f686 1c3d b58d 3cbd ceef 853d 0930 ce3d
00000220: 8bad 813e 0fc1 713e 94f6 143d 65cd b03d
00000230: 6918 21be edfc 66bd 2cff 8fbd 14e7 3a3c
00000240: 784c 88bd 155f a5bd c72b 9f3d 27f6 1d3e
00000250: 3495 4b3d 40eb 49bd 62f1 493c b4e0 943d
00000260: d235 2ebd 6d4a 0e3e 5e94 8e3d 041c 32be
00000270: 1091 163d 97e9 08be 4db4 73bd 3e7d 273e
00000280: b2db 31bd 896f 813e 7666 09be a9ad 0e3c
00000290: 032a da3d 4465 153e 7eea 9a3d b52a 6a3e
000002a0: 84aa 9b3e f398 613e 375d 3fbe 2511 293e
000002b0: 43c1 d0bc cce3 d1bd 2829 223e 36a5 6ebe
000002c0: 1d0c 25be 9b77 0bbe 65cd 813e 39c1 293d
000002d0: 6d29 413e dd4f 6cbd 1006 b13d 6bd1 a0bd
000002e0: 3f23 a4bd 6812 4d3e bdc3 c33c f822 0abe
000002f0: f102 773c a21f 06be f0e2 1b3e 6a88 033e
00000300: 3ae2 a3bd 01e1 cb3c c245 a6bd 7099 adbd
00000310: a8b9 ff3d f07e edbd 45ae 2f3e 62eb 24bd
00000320: a01d 4bbe de4a a1bd bc9c e8bd 2eba eb3c
00000330: e9d1 43be e26a 39be f70a 973d d744 243e
00000340: 70d5 a8bd a9bd 563d 3d9b 8b3d 87f2 0d3e
00000350: 28ba be3c 232e da3d 4f45 12be 105b cabd
00000360: 1323 eb3c 2e03 ce3d 40e5 5abd e8dd 293e
00000370: 7ba6 0cbc f25a 043e b44a 3bbd 4e09 17be
00000380: c34a 13be 707b 5bbd 4cdd 11bd 5ecf a63d
00000390: 5da1 90bc db45 96bd e201 17be c1cc a3bd
000003a0: 0534 12be 908b 0cbe 4092 b03d a82d e3bd
000003b0: 8f7d 50bd a0bd dd3d 17c1 f8bc fa9a 30be
000003c0: a4be bfbd f161 19be ed03 c0bd b49d 313c
000003d0: ef8b e1bd 2e6c 3b3b 0897 d63d f2f4 173e
000003e0: 9274 0abe d8f5 39be 9791 d03d c2e0 f6bd
000003f0: ff8b a2bd 046e c73b e13b f9bc ee3e a93d

classifier.2.bias f4 [16]
-0.027624965 -0.08465321 0.08744681 0.03333547 0.14968275 0.13824618 -0.012687917 0.12592912
-0.095336616 -0.00018159694 0.12931778 -0.029909495 0.09019122 0.12230725 0.07346678 -0.16748568
00000000: c04d e2bc aa5e adbd 5017 b33d c68a 083d
00000010: 6f46 193e 6890 0d3e fbe0 4fbc 90f3 003e
00000020: d83f c3bd 0f6b 3eb9 e16b 043e c204 f5bc
00000030: 2db6 b83d 397c fa3d c075 963d 5e81 2bbe

classifier.4.weight f4 [8, 16]
-0.10673544 0.12603506 0.03854144 -0.14154842 0.19110562 -0.16071352 0.107140936 -0.019957393
0.14110138 0.10921545 -0.11212365 0.07085006 0.29529792 -0.061452366 -0.0016441821 0.13242385
0.16671434 -0.074507385 -0.111538105 0.043784447 -0.0343624 0.31412023 -0.06376831 -0.19277793
-0.16305578 0.094120435 0.22052088 0.31276754 -0.0022156597 0.08066613 0.10786832 0.2216821
-0.2065019 0.27549672 0.38349357 0.11558452 -0.02567636 -0.07990205 0.18558212 0.02808383
0.02068371 -0.028352557 -0.091474205 -0.045420915 -0.11528335 -0.29056957 0.069781564 -0.26284096
0.100673646 0.13881338 0.29024404 -0.029433455 0.090735324 -0.14896075 0.13096064 -0.13847278
0.19310512 -0.09078607 -0.09524916 0.27166498 0.33597684 -0.19728607 -0.24712192 0.046197824
0.08051002 -0.029812435 -0.19998094 0.099799804 -0.109096095 0.10484562 0.08036333 -0.12259984
-0.15553987 -0.19508603 -0.0427131 -0.044118848 -0.20684168 0.21179636 0.3009601 0.07339412
-0.112318575 0.2915455 0.36878684 0.17092745 0.08673099 -0.16759224 -0.018851917 0.0567967
-0.06206799 0.2301007 -0.091462314 -0.18968223 0.14331552 -0.10948242 0.0002333384 -0.09666439
0.19297591 0.21858832 0.21967424 -0.20443346 -0.132886 0.24746682 -0.07326463 -0.14271379
0.35234886 -0.062038094 0.04545971 -0.08159114 0.20915031 -0.24140869 -0.033516373 -0.057275515
-0.06831503 0.04110355 -0.22889619 0.21618731 0.20144407 0.16213307 0.024391387 -0.23767279
-0.19140211 -0.01832963 0.32802686 0.07529597 -0.13487111 0.09468536 0.21972424 0.20608298
00000000: 1c98 dabd 560f 013e a1dd 1d3d 12f2 10be
00000010: 31b1 433e 1692 24be b56c db3d b07d a3bc
00000020: e17c 103e 5aac df3d 16a1 e5bd d619 913d
00000030: 4a31 973e 7ab5 7bbd 9981 d7ba 1e9a 073e
00000040: 2ab7 2a3e 5497 98bd 176e e4bd 5257 333d
00000050: 97bf 0cbd 5ed4 a03e f698 82bd 9467 45be
00000060: 18f8 26be 37c2 c03d 3ad0 613e 1123 a03e
00000070: 9a34 11bb 4934 a53d 11ea dc3d a200 633e
00000080: 3c75 53be e80d 8d3e 4559 c43e 94b7 ec3d
00000090: 3b57 d2bc b0a3 a3bd 3d09 3e3e 0f10 e63c
000000a0: e270 a93c 9f43 e8bc d456 bbbd 480b 3abd
000000b0: ad19 ecbd 89c5 94be a3e9 8e3d 1793 86be
000000c0: fc2d ce3d 1825 0e3e de9a 943e 6e1e f1bc
000000d0: 71d3 b93d 2b89 18be 8c1a 063e cfcb 0dbe
000000e0: 59bd 453e 0cee b9bd fe11 c3bd ac17 8b3e
000000f0: 2805 ac3e 5c05 4abe 870d 7dbe ee39 3d3d
00000100: 70e2 a43d 3539 f4bc cec7 4cbe d763 cc3d
00000110: c66d dfbd 4db9 d63d 8895 a43d a015 fbbd
00000120: d845 1fbe a2c4 47be eef3 2ebd f7b5 34bd
00000130: 4ece 53be 25e1 583e 7117 9a3e a84f 963d
00000140: 4807 e6bd 7445 953e a1d1 bc3e 9b07 2f3e
00000150: 04a0 b13d 4d9d 2bbe 566f 9abc a8a3 683d
00000160: 013b 7ebd 859f 6b3e 9850 bbbd 0f3c 42be
00000170: 4ec1 123e 5238 e0bd 4dac 7439 fbf7 c5bd
00000180: 7a9b 453e 9ed5 5f3e 49f2 603e 0157 51be
00000190: 4513 08be f167 7d3e c40b 96bd 9023 12be
000001a0: 1267 b43e a81b 7ebd f633 3a3d 4119 a7bd
000001b0: 802b 563e d733 77be 7748 09bd bb99 6abd
000001c0: c0e8 8bbd 325c 283d c363 6abe 3560 5d3e
000001d0: 5b47 4e3e 3606 263e 72d0 c73c 7f60 73be
000001e0: eafe 43be 0528 96bc 23f3 a73e c634 9a3d
000001f0: a71b 0abe 66ea c13d 64ff 603e 6b07 533e

classifier.4.bias f4 [8]
0.24922007 0.03660505 0.1618637 0.09159126 -0.0049768775 0.06811841 -0.039192494 0.10576172
00000000: 8c33 7f3e 2def 153d 99bf 253e 3394 bb3d
00000010: 1315 a3bb aa81 8b3d 4f88 20bd 9a99 d83d

classifier.6.weight f4 [1, 8]
0.18541183 -0.26214907 0.21529213 0.40084714 -0.21558836 0.37338254 0.33579484 -0.45022678
00000000: 99dc 3d3e 6738 86be 8a75 5c3e d63b cd3e
00000010: 32c3 5cbe ff2b bf3e 4ded ab3e 2084 e6be
