newdata/best_model.pth (torch, 20258 bytes, 13 tensors)

feature_mlp.0.weight f4 [16, 10]
000000 9b 7c 9a 3d b3 19 6c bc ae bc a7 bb 54 d8 29 3e
       0.07543298 -0.014410424 -0.005118928 0.16586429
000010 f3 13 05 3e 4f 5b 06 3e b9 41 8d 3e 7d 9e 40 be
       0.12995891 0.13120769 0.27589205 -0.18810458
000020 a9 7a 9b be ae fb 20 3e 9b ed 5d 3d e2 6a de bd
       -0.3036702 0.15721008 0.054181676 -0.1086023
000030 db bc e9 3d 89 f1 b9 3d 32 4c 3a be 84 4c 94 bd
       0.114129744 0.09079272 -0.18193129 -0.07241157
000040 f2 10 a2 3e 6b 54 ca bd ca b6 c6 3d 61 72 97 3e
       0.31653553 -0.09879383 0.09702833 0.29579452
000050 04 8c 84 3e 3b e0 27 3e 47 39 18 be 72 b2 31 be
       0.25888073 0.16394131 -0.148656 -0.17353228
000060 c0 39 44 3e 25 2c 7a 3e 76 ec 71 be 22 c2 14 3e
       0.19162655 0.24430902 -0.23625359 0.14527181
000070 ac 5d 8f 3e bf 2f 1d 3e 75 2b 91 be 0e f0 11 be
       0.28001153 0.15350245 -0.28353468 -0.1425173
000080 bb f1 6d be 3f 98 32 bd 26 62 1f 3e 82 9e 16 be
       -0.23236744 -0.043602224 0.15564784 -0.14708903
000090 2d 3e 61 be 01 20 6c 3e f8 db 9f 3e 1a 95 03 bd
       -0.21996374 0.23059084 0.3122251 -0.032124616
0000a0 54 01 63 3d 6c e8 d5 bd 7a 51 c2 bc 38 4e 10 bd
       0.05542119 -0.104447216 -0.023720492 -0.035230845
0000b0 51 8a 89 3e 1d 6e 4f 3e 0f b8 3b be c8 51 8e 3e
       0.2686334 0.20256849 -0.18331932 0.2779677
0000c0 4e d9 f9 bd bc 09 42 be 6d c0 30 3e 71 d7 cc ba
       -0.12199651 -0.18949026 0.17260905 -0.0015628171
0000d0 6b 84 2d be 53 eb 04 bd e5 2a 88 be 8e 9c fb bd
       -0.16945045 -0.032450985 -0.26595226 -0.1228572
0000e0 cf 0a 05 3e 97 b0 55 3e 02 f8 01 be 3d ae 73 be
       0.12992404 0.20868145 -0.12692264 -0.23796935
0000f0 b3 a2 f7 bc 1c a1 5d bd 89 cc a0 be c2 54 58 3d
       -0.030228948 -0.054108724 -0.31406048 0.052815206
000100 6e 66 a4 bd 97 0b 21 be 04 61 8d be 26 e8 2f bd
       -0.080273494 -0.15727077 -0.2761308 -0.042946003
000110 08 35 68 be d0 e8 b5 bc 6e cf 5a be 66 ba 2c 3e
       -0.2267648 -0.02220574 -0.2136819 0.1686798
000120 35 81 9d be 5b 55 22 3d bb b1 74 3e 92 26 2b 3e
       -0.3076264 0.039632183 0.23895924 0.16713932
000130 79 88 95 3e 18 ea 01 be c6 11 8f 3e a2 5e 6d be
       0.29205683 -0.12686956 0.27943248 -0.23180631
000140 8d 45 54 be c6 29 82 3d b1 bc 3d be 0a e0 1c 3e
       -0.20729657 0.06355624 -0.18529011 0.15319839
000150 f1 7d d6 3d 9f 6e 8d 3d 8c b4 9f 3e e7 45 8c bd
       0.1047324 0.06905865 0.31192434 -0.0684927
000160 dc da 6f 3e 7b 7c a7 bd 84 a5 a9 bc f3 73 64 3d
       0.23423332 -0.0817804 -0.020708807 0.05577464
000170 fd c8 9a be 4d e8 3c 3e ce 81 d8 bd 29 5a 60 3c
       -0.30231467 0.1844799 -0.10571633 0.013693371
000180 80 13 d3 3d 20 03 91 be 7a 1b 14 3e 93 9c 86 3e
       0.10306454 -0.28322697 0.14463606 0.26291332
000190 ae 96 2b 3e 09 e1 3f 3e 99 7a 2c 3e f8 e2 2d be
       0.16756698 0.18738188 0.16843642 -0.16981113
0001a0 ed 34 bd bd 2c 93 d1 3d 3a 80 ca 3c 74 34 a3 bc
       -0.092386104 0.10233149 0.024719346 -0.019922473
0001b0 19 41 8d 3e 1a ad 7c bd ff 2e 81 bb 03 e6 bb 3d
       0.27588728 -0.06168852 -0.00394237 0.09174731
0001c0 2d 27 fa 3d 0a b4 a3 bd ec 25 89 bd af 84 5f bd
       0.122145034 -0.07993324 -0.06696686 -0.054569896
0001d0 55 2f 0a 3c c0 f3 9d 3c ed 5d 84 bd 9b f0 3a be
       0.008434136 0.019281268 -0.064632274 -0.18255846
0001e0 5f cc be 3c 28 10 39 3e e4 92 53 3d 75 63 5f 3e
       0.023290811 0.1807257 0.051653758 0.21815284
0001f0 e6 f2 14 3e f5 aa 4d 3e 43 0c 2d be 29 41 4b 3d
       0.14545783 0.20084746 -0.16899209 0.04962269
000200 08 23 0b be 80 6a 4f bd 7f 0f 1f 3c 54 85 ac bd
       -0.13587582 -0.050638676 0.009708284 -0.08423868
000210 d1 71 91 be 13 6f af 3d cf 69 4a 3e 33 06 6a be
       -0.28407148 0.085661076 0.19766925 -0.22853927
000220 93 66 cc bd 9a 1a 96 3e f8 9d d9 3d a7 52 73 3e
       -0.09980502 0.2931717 0.10625833 0.23761998
000230 09 85 b5 bc 9d b5 0a be e7 1e a7 3c 1a df 62 be
       -0.022158163 -0.13545842 0.020400478 -0.22155419
000240 43 c0 18 3a 1e 8b 17 3e 8c 95 81 be 36 9d 04 3e
       0.0005826989 0.14799163 -0.25309408 0.12950596
000250 19 01 8b 3c e7 a1 96 be 0e fa 1d be 1e af 18 3e
       0.016968297 -0.29420397 -0.1542742 0.14910552
000260 e5 50 0f bc dd 1b 1a 3e 06 62 c6 3c 6d 60 44 be
       -0.008747314 0.15049691 0.024216663 -0.19177409
000270 10 eb 1b 3e b4 13 55 3e ff 9d 33 3c a7 1c 98 3e
       0.15226388 0.20808297 0.010962962 0.2970936

feature_mlp.0.bias f4 [16]
000000 81 82 53 be 8b 1c 8a 3e 63 74 06 3e b7 28 8c bd
       -0.20655252 0.26974902 0.13130336 -0.06843703
000010 c1 08 96 be 4d 2e 72 3e 11 af 59 be 3a 58 32 be
       -0.29303554 0.23650475 -0.21258189 -0.17416468
000020 0a 58 9e 3e d1 95 d2 3d 73 2d 40 be ab 9c a2 be
       0.30926543 0.102824815 -0.18767338 -0.31760153
000030 3c b8 6a bd 80 c8 24 3e 66 f8 74 3b 30 0c fb bd
       -0.057304606 0.1609211 0.0037379502 -0.12258184

feature_mlp.2.weight f4 [16, 16]
000000 7c dc 61 be 09 21 33 bc 6a 07 20 3e db 28 31 3e
       -0.22056764 -0.010933169 0.15627828 0.17300741
000010 bc 82 4d be 79 2c 1e be 67 4a 61 be 84 bc f0 3d
       -0.20069402 -0.15446652 -0.22001038 0.117547065
000020 47 1a 4a 3e 55 60 74 3e 29 df 66 3e d8 c9 34 3e
       0.19736587 0.23864873 0.22546066 0.17655122
000030 c4 e2 80 bd 7b 02 df 3d 5f 67 41 be f4 de 54 be
       -0.06293252 0.10889145 -0.18887089 -0.20788175
000040 3e 9e b6 3c e9 98 69 be 83 b3 1a bd ee 93 55 be
       0.022292253 -0.22812237 -0.037768852 -0.20857212
000050 e6 51 11 3e 5e 64 9a 3d 30 10 92 bc 5b 59 43 be
       0.14191398 0.07538675 -0.017829984 -0.19077055
000060 2e 3f c3 bd b3 fd 54 be 27 bd 56 3e 7e ed 53 3e
       -0.09533535 -0.20799904 0.20970593 0.20696065
000070 c5 1c 1b 3e 33 29 3f 3e 9d 31 96 3d 7f 4e d2 bc
       0.15147693 0.1866806 0.07333682 -0.025672195
000080 64 ee 39 be d5 51 2c be aa 2d ea 3d 86 49 34 be
       -0.18157345 -0.16828091 0.11434491 -0.17606172
000090 1c 64 9e 3c 81 a6 02 be 37 c3 80 3e a9 85 87 3d
       0.019334845 -0.12758829 0.25148937 0.066172905
0000a0 c8 1f 5e bc 5c af c7 bc d8 ea 57 3e 47 8d 8c bd
       -0.013557382 -0.02437561 0.2108568 -0.06862884
0000b0 7b 58 56 be c4 ae d9 3d 75 c1 12 be 99 5d 4c 3e
       -0.2093219 0.10629037 -0.1433161 0.1995758
0000c0 0b d6 be 3d 43 5e 65 bc ed 98 8d bd 5b b2 f5 bc
       0.09318169 -0.0139995245 -0.06913934 -0.029992273
0000d0 64 ed e6 bd 71 6d 59 3e d7 8b 7a 3c e7 f7 69 3e
       -0.112757474 0.21233155 0.0152921295 0.22848473
0000e0 5b 48 77 3e ee 46 85 3d 42 8c 75 3e ef 2f 31 be
       0.24148695 0.065076694 0.23979285 -0.17303441
0000f0 81 30 25 be 64 2a 55 3c e8 81 38 bb f8 d0 dc bc
       -0.16131784 0.013010595 -0.0028153602 -0.026955113
000100 61 46 c1 bd 32 a1 db bd bf 64 3b bd 09 a3 32 be
       -0.09437252 -0.10724105 -0.045750376 -0.17445005
000110 a2 0e f4 bd 78 47 bc bc 6f 95 47 bd b1 bc e3 3d
       -0.119168535 -0.022983298 -0.048726495 0.111199744
000120 f8 e9 7d 3e a4 1f f0 3d bd bc cf 3c d4 a0 6e 3e
       0.24796283 0.11724785 0.025358552 0.23303539
000130 0a ee 56 bc 20 ea 3d 3d b6 7f d9 3d 9a ce c5 bd
       -0.013118276 0.046365857 0.10620062 -0.09658547
000140 47 6c ed bd 5d 1b fc 3d 2a 65 0c be d3 92 41 bd
       -0.11592918 0.12309907 -0.13710466 -0.047259163
000150 46 47 56 3d ad a2 31 3e 73 e7 d4 3d 87 b1 f4 bd
       0.052314065 0.17347212 0.10395708 -0.11947923
000160 fd 83 cd bb a4 4b 5b 3e 72 d9 95 3d df 29 2b be
       -0.0062718377 0.21415573 0.07316865 -0.16715191
000170 83 95 a8 bd 36 90 fc 3d 54 c6 99 bc 29 73 75 3e
       -0.08231642 0.123321936 -0.018771328 0.23969711
000180 7c 47 63 be 20 1b 10 3e ba 1d 5f be 21 46 b1 3d
       -0.22195238 0.14072847 -0.21788684 0.08655954
000190 9c 82 d2 bd f0 ec 3c be 40 23 6a be 10 73 1e be
       -0.10278818 -0.1844976 -0.2286501 -0.1547358
0001a0 c4 da bb 3d 26 92 5d be 6c b8 50 be f0 52 c4 3c
       0.091725856 -0.21637782 -0.20382851 0.023965329
0001b0 98 be 60 3d 8a c3 dc 3d a2 d6 74 3e 6b 39 03 be
       0.054869264 0.107794836 0.23910001 -0.12814872
0001c0 07 f2 03 3e 6d 63 21 bd 1f e2 7c 3e 69 7c 61 3e
       0.12885295 -0.03940146 0.24695633 0.22020115
0001d0 10 2e be 3d 62 0a 2a 3e 17 45 54 3e 6e 40 c0 bd
       0.092861295 0.16605523 0.2072948 -0.09387289
0001e0 3e 3b 0e be 75 2c 27 3e 80 a7 61 3c 1e 28 2f be
       -0.13889787 0.16325553 0.013772845 -0.17105147
0001f0 30 b3 4b be 7a 59 14 3e 94 8d 23 3e 9e ba 15 be
       -0.19892573 0.14487258 0.15971977 -0.1462197
000200 20 51 1d 3d ad 2f 6c 3e 99 0d 61 be f3 01 81 3e
       0.038407445 0.23065062 -0.21977843 0.251968
000210 d6 2a 8b bd fd e8 53 be 1b 1b cb bd 27 83 17 3e
       -0.0679528 -0.20694347 -0.09917279 0.14796124
000220 1a 6b 20 3e b6 b3 62 be 7a 00 2a be 46 a9 20 be
       0.15665856 -0.22138867 -0.16601744 -0.15689573
000230 29 14 21 be f0 72 63 3d cd d9 92 bc 1b 47 3f be
       -0.15730347 0.055529535 -0.017926121 -0.18679468
000240 02 09 33 3e 1c 54 03 be bd e3 b8 bd a8 a9 48 bd
       0.17483905 -0.12825054 -0.09027813 -0.04898992
000250 5e 7e 42 bb bc 52 00 3e 6f 85 38 bc ff 75 72 be
       -0.0029677371 0.1253156 -0.011262282 -0.23677824
000260 17 9f 49 3e 9e 5b af 3d c3 1d 1e 3e ea f1 36 3e
       0.19689594 0.085623965 0.1544104 0.1786572
000270 84 83 66 be bb e9 3b 3e 3c 33 7d 3d cb 1e 00 be
       -0.22511107 0.1835088 0.06181644 -0.12511747
000280 5f 5b 8b 3d ab 17 83 bd 98 aa 97 3d c2 08 5f 3d
       0.06804537 -0.06400999 0.07405585 0.05445171
000290 44 8d 30 be 2c f9 fe 3d 5e 64 d1 3d 00 96 9a bd
       -0.17241389 0.124498695 0.10224222 -0.075481415
0002a0 72 5c ca bd 87 37 3f 3e 90 78 58 3e 5d 3a 2f be
       -0.09880914 0.18673526 0.21139741 -0.17112108
0002b0 cf 2c 5a 3e 14 91 5c 3e 53 99 60 bd 0d a7 e7 3d
       0.21306156 0.21539718 -0.05483372 0.11311159
0002c0 e1 62 91 bc 66 c4 3b be 7a 6b 64 3b a6 fc d0 bd
       -0.017747344 -0.18336639 0.00348541 -0.10204439
0002d0 de 3f 88 3c c7 d5 6a bd 08 3c 6c 3e 85 ed 37 3e
       0.016632017 -0.05733278 0.23069775 0.179617
0002e0 02 46 4b 3d 33 59 5c be a2 95 ff 3d 9b 3a 9b bd
       0.04962731 -0.21518402 0.12479712 -0.075795375
0002f0 cd 31 1b bd 0f 72 e8 bd 1b c2 62 3b 82 10 1e 3e
       -0.03788929 -0.1134988 0.003460056 0.15435985
000300 70 17 e5 bd 2e af fe bd 12 be 5a 3c d0 ba 05 3e
       -0.11186111 -0.124357566 0.01335098 0.13059545
000310 27 45 4b bd 02 43 ab bd f0 c2 c2 3d 6c ca 7c 3e
       -0.049626496 -0.0836239 0.095098376 0.24686593
000320 87 28 4f bd f5 bf f5 3d 20 c9 a9 bd cd 04 23 3e
       -0.05057576 0.119995035 -0.08290315 0.159198
000330 6b 50 3a 3e 0f 4b c8 3d 84 c6 b2 3d 99 71 6b be
       0.1819474 0.09779941 0.0872927 -0.22992553
000340 db f8 22 3e cb af 2a be 33 e7 1b 3e 6f 77 82 be
       0.15915243 -0.16668622 0.15224914 -0.25481746
000350 1c 63 73 be 03 69 30 3e 1a 75 a4 3d b9 01 fe bd
       -0.23768276 0.17227559 0.08030148 -0.12402672
000360 e1 2a 70 3e f4 18 61 be 89 eb d0 bd ac c2 32 3e
       0.23453857 -0.21982175 -0.10201175 0.17457074
000370 37 10 15 be 3a 8c 70 be 15 a8 33 3e b2 b4 77 3d
       -0.14556967 -0.23490992 0.17544587 0.06047506
000380 5c 48 3a be d0 0c a3 3c 03 97 69 be 5a 93 3f 3e
       -0.18191665 0.01990357 -0.22811513 0.18708554
000390 e3 3e 07 3e 5f 45 19 bd 45 e3 de 3c 30 0c 6b 3d
       0.13207583 -0.037419673 0.02720798 0.05738467
0003a0 ec 4a 6a 3d 71 40 30 be 4c 82 62 3e 01 cc 27 3e
       0.057200357 -0.17212082 0.22120017 0.16386415
0003b0 1d 22 5d be 70 fb 55 3e 53 f2 a8 3d d1 43 45 3e
       -0.21595044 0.20896697 0.08249345 0.19264151
0003c0 a5 54 85 bd 17 ef 2f 3e 66 85 32 3e 16 6d 3d bd
       -0.06510285 0.1718105 0.174337 -0.04624661
0003d0 dd 59 15 3e 91 ce 4d be bf f8 5c 3e 96 36 7a 3c
       0.14585061 -0.2009833 0.21579264 0.015271803
0003e0 d7 12 21 be 31 a2 a7 3d 9a 75 01 be 4e de 31 be
       -0.15729843 0.081852324 -0.12642518 -0.17369959
0003f0 a6 f3 0b be 2b b1 3c 3e f1 a6 33 3e 86 29 0a 3e
       -0.13667163 0.18426959 0.17544152 0.13492402

feature_mlp.2.bias f4 [16]
000000 94 50 e7 bd bf 8f 54 bd 1e da c5 bd a9 94 ba 3b
       -0.11294666 -0.0518949 -0.09660743 0.005693991
000010 89 86 63 bd 4c 03 61 3e de ce d2 bd 4e 34 48 3e
       -0.055548225 0.21973914 -0.10293363 0.19551203
000020 1c f6 f7 3c c8 80 3e 3e eb bb ef bd 50 e6 3d 3d
       0.030268721 0.18603814 -0.117057644 0.04636222
000030 f7 3b 22 be a8 c6 a8 3c 56 36 bc bd c0 c3 4f 3c
       -0.15843187 0.02060254 -0.09190051 0.012680948

feature_mlp.4.weight f4 [32, 16]
000000 ae 89 af 3b 62 c4 63 3e 5a 1f a9 bd 1e 7d ab 3d
       0.005356989 0.22242883 -0.08257933 0.083734736
000010 66 ac 87 bd b7 85 2f 3d f4 a1 7b 3d 73 b1 57 3d
       -0.06624679 0.04285213 0.061433747 0.052659463
000020 6d 81 f2 bc 2e 91 66 3d 22 15 22 bd 3a d3 26 be
       -0.02960273 0.056290798 -0.039570935 -0.16291514
000030 a3 05 69 be 67 59 e7 3c 11 c2 34 3c 23 58 00 be
       -0.22756056 0.028240873 0.011032597 -0.12533621
000040 ca 81 53 bd 57 53 82 be 5c 04 26 3e 84 7a 91 3d
       -0.05163745 -0.25454208 0.162126 0.07103446
000050 a8 e1 81 bb 6d 00 52 bd 44 bb d8 bd f0 f6 49 be
       -0.003963668 -0.051269937 -0.10582593 -0.19723105
000060 98 43 f0 bd 68 01 ff bd e0 62 10 3e bd 73 bf bd
       -0.117316425 -0.1245144 0.14100218 -0.09348247
000070 19 ab 4b be 14 19 37 3e e1 55 70 3e a4 ca 31 3d
       -0.19889487 0.1788066 0.2347026 0.043406144
000080 5b d6 28 3e 23 47 15 be 8b 89 75 bc 4e ef 45 3d
       0.1648802 -0.14577918 -0.014986406 0.04832392
000090 b1 23 67 be 28 e8 cc 3d b5 4e 4b 3e 18 6d 8d 3d
       -0.22572209 0.10005218 0.19854243 0.069055736
0000a0 71 81 42 be 74 7f 3e 3e cd 28 24 3e bb b9 9d 3d
       -0.1899469 0.18603307 0.1603119 0.07701441
0000b0 da 86 20 bd 30 44 06 be 10 03 58 3e 18 51 a0 bc
       -0.039191104 -0.13111949 0.21094918 -0.019569919
0000c0 5c 03 c7 3d 66 90 24 be 90 9a 68 bd 7e 70 4c be
       0.097174376 -0.16070709 -0.056788027 -0.19964787
0000d0 f8 6b 00 3e 16 b4 2e 3e d0 c9 53 3d 0a df 35 3e
       0.12541187 0.17060885 0.051706135 0.17760864
0000e0 e4 cf 4b 3e 60 b0 ea 3d d4 6f 38 be 94 ce 61 3e
       0.19903523 0.11459422 -0.18011409 0.2205146
0000f0 f8 6f 7a 3d c8 6d 9d 3d 7e 04 7f be dc d0 13 be
       0.061141938 0.07686955 -0.24904057 -0.14435142
000100 8a 97 41 3e ce a7 ae 3d 27 fe b3 ba 5e fd 25 be
       0.18905464 0.085281 -0.001373236 -0.16209933
000110 d2 fd 96 bd 36 ae ff 3d 70 cc 87 bc b8 76 60 be
       -0.07372631 0.124844 -0.016576976 -0.21920288
000120 75 a3 cf 3d 10 fa 5f 3d 60 60 10 bd 55 be 75 bd
       0.10138599 0.054681838 -0.03524816 -0.059995968
000130 3b 76 b9 3d b5 a2 04 3e bf 59 dc bd e6 6c ae 3c
       0.09055754 0.12952693 -0.10759305 0.021292161
000140 86 49 4a 3e 81 87 2c 3e a4 3c f2 3d 22 bf 2b be
       0.1975461 0.16848566 0.118279725 -0.1677213
000150 b8 62 51 3d 76 ab e8 bb ce cf 79 3e 7f 3a 53 3e
       0.051119536 -0.007100518 0.24395677 0.20627783
000160 66 aa 57 3e d7 36 9a bb 98 98 5f be 6a 4b 13 be
       0.21061096 -0.0047062445 -0.21835554 -0.14384237
000170 02 5c 5a 3d 30 23 fe bd 06 01 85 3b 21 1d 93 3c
       0.0533104 -0.12409055 0.00405896 0.017958226
000180 05 87 02 3e e5 30 b2 bd c4 2f 2d be 53 af 5e be
       0.12746818 -0.08700732 -0.16912752 -0.21746568
000190 8e a6 dd bd 11 86 62 3e 06 2d d9 3b 7e 89 08 3e
       -0.108227834 0.22121455 0.0066276817 0.13333699
0001a0 c6 c0 44 bd ef 8c 3e 3e 97 28 ac bd 6e 2e 44 be
       -0.048035406 0.1860845 -0.084061794 -0.19158337
0001b0 1f 02 50 3e 21 cd 57 be 4b 00 9b bd cb 54 7c bc
       0.20313309 -0.21074344 -0.07568415 -0.015401076
0001c0 e6 90 25 3e 08 0c 29 be 0b 8c e4 bd 76 12 fc bd
       0.16168556 -0.16508496 -0.111595236 -0.12308209
0001d0 7b 84 43 be 83 b2 f8 3d ad 09 6c 3e 28 15 04 bd
       -0.19093506 0.121434234 0.23050566 -0.03224674
0001e0 c0 24 8d 3d 00 7f 0a be 9f ac 66 bd b0 ec b3 bd
       0.06891775 -0.13525009 -0.056316968 -0.08785379
0001f0 5a 9e 5d be 7b c8 57 3d 30 75 20 3c cc e2 42 3e
       -0.21642438 0.052681427 0.009793565 0.19031829
000200 dc 9a 67 be 6c 45 64 be a8 f4 1c bd c6 94 08 be
       -0.22617668 -0.22292107 -0.03831926 -0.13338003
000210 80 c9 4f 3e 67 d7 e2 bd a8 f8 0a 3d c6 d5 23 be
       0.2029171 -0.11076241 0.033928543 -0.15999517
000220 94 97 f3 bd 38 59 7b be 50 0c 72 3d 66 41 82 3d
       -0.118941456 -0.24545753 0.059093773 0.0636013
000230 30 be 4f bd 08 4d 90 3d 20 40 a4 3c c3 a0 f7 bd
       -0.050718486 0.070459425 0.020050108 -0.1209121
000240 a2 ca 68 bb e5 3e ff bd da dc 40 bd 30 94 a1 bd
       -0.003552117 -0.12463168 -0.04708562 -0.07889593
000250 20 44 38 3e 2e 85 55 3e ce 74 d6 bd 86 86 67 3e
       0.17994738 0.20851585 -0.104714975 0.2260991
000260 96 39 a8 3d 9f 90 44 be f3 93 dc 3d aa 22 4a 3e
       0.08214109 -0.19195794 0.107704066 0.19739786
000270 20 a3 d3 bc bc 34 4b 3e 63 4a 79 be 26 dc 92 bd
       -0.02583462 0.19844335 -0.24344783 -0.07170896
000280 64 6f 42 be a4 2d 86 3d b1 88 6b 3e 97 a4 42 3e
       -0.18987805 0.06551674 0.23001362 0.19008099
000290 bc 93 4c 3d 2f bc 1e 3e 22 67 4c be dc d9 05 be
       0.049945578 0.15501474 -0.19961217 -0.13071388
0002a0 19 c7 86 3d b8 63 40 3e 42 6b 28 3e 3d cd 07 3e
       0.065809436 0.1878804 0.16447166 0.13261886
0002b0 36 c0 3d 3e d6 0f 68 3b d6 f3 d6 3c c8 d9 95 3d
       0.18530354 0.003540983 0.026239317 0.07316929
0002c0 46 d4 53 be b7 f8 16 be cc 8a 4a be 60 3d 12 be
       -0.20686445 -0.14743315 -0.1977951 -0.14281225
0002d0 30 c6 e5 bc da 70 5c be 36 14 0e 3e f7 b4 6f 3e
       -0.028048605 -0.21527424 0.13874897 0.23408876
0002e0 d8 dd ee 3d 1d b9 0a bd 2e 17 f4 3c 53 7b d4 3d
       0.11663407 -0.033867944 0.02979621 0.10375085
0002f0 12 ae 04 3d 43 33 37 bc 64 33 03 be 0f 36 1f 3e
       0.03239257 -0.011181655 -0.12812573 0.15547965
000300 d3 a0 76 be 7b 23 12 be 24 12 6f be 56 8b be 3d
       -0.24084787 -0.14271347 -0.23346764 0.0930392
000310 ff d4 9a 3d c8 c5 4f be 29 ad d6 3d d5 e1 85 bd
       0.07560157 -0.20290291 0.104822464 -0.06537215
000320 01 29 4d 3e 5d 44 79 3e 95 7c 42 bd b8 60 57 be
       0.20035173 0.24342485 -0.047482092 -0.21032989
000330 7d 34 19 3d 80 1e 40 be 38 67 c3 3b e9 07 58 3e
       0.037403572 -0.18761635 0.0059632324 0.21096767
000340 1c e4 24 be 7a 9c 39 3e 3a b7 06 3e a4 0a 79 bd
       -0.16102642 0.18126097 0.13155833 -0.060801163
000350 74 53 4a be 26 5c 28 bc ee 92 6d be 88 a6 23 be
       -0.19758397 -0.010275876 -0.2320058 -0.15981495
000360 ba 07 20 3e 24 f5 15 3e 40 30 1f 3e 18 61 2e 3d
       0.15627947 0.14644295 0.1554575 0.042573065
000370 8c d2 6f 3e b9 28 57 3e d9 50 05 3d fc 8b 58 3e
       0.23420161 0.21011628 0.032547805 0.2114715
000380 a8 26 66 be 81 87 9d bb 77 bb 48 bd 3e c0 15 be
       -0.22475684 -0.004807413 -0.049006905 -0.14624116
000390 c9 82 35 3e 8f 2d 08 bb 07 c6 d3 bd 1c 6c c3 bd
       0.17725672 -0.0020779108 -0.10340505 -0.095421046
0003a0 49 bc d8 3d 2b 52 87 3d d9 a1 5a 3e d2 92 8d 3c
       0.105827875 0.06607469 0.21350802 0.017281923
0003b0 d3 20 df ba 6a 41 6c 3d 07 bb 4b be fb 79 70 be
       -0.0017023332 0.05767957 -0.19895564 -0.23484032
0003c0 6e 37 78 bc 30 36 4b bd 85 81 6f bc 24 fb 04 be
       -0.015149934 -0.049612224 -0.014618282 -0.12986428
0003d0 28 4f 06 be 07 2c 1b 3e 52 2d ff 3d c0 66 3d 3d
       -0.13116133 0.15153514 0.12459816 0.04624057
0003e0 86 7d e3 bd e1 df 05 3e 2f ef 24 3e 57 a1 10 be
       -0.11107926 0.13073684 0.16106866 -0.14124046
0003f0 2b 59 90 bd 5c d7 9b 3d 1a b8 9f bc bd 82 67 be
       -0.070482574 0.07609436 -0.019496966 -0.22608466

feature_mlp.4.bias f4 [32]
000000 77 65 73 3e 1e 88 ea 3d db 23 c6 bd 12 91 75 be
       0.23769175 0.114517435 -0.09674808 -0.23981121
000010 95 d3 8d 3a 9a 2f 78 be 93 e2 14 3e a3 6b c3 3d
       0.0010820503 -0.24236909 0.14539556 0.095420144
000020 0e 01 be 3d 60 3a 5f 3e 7b 9a 53 3d e0 4e 34 bd
       0.09277545 0.21799612 0.051660996 -0.044020534
000030 7a fb 85 3d f8 33 0e be 86 ba 51 3e 3b 6f 34 bd
       0.06542106 -0.13887012 0.2048131 -0.04405139
000040 86 00 71 be d8 f1 00 be a9 98 7b 3e bc 4a 15 be
       -0.23535356 -0.12592256 0.24569954 -0.1457929
000050 4f f4 b3 3d e3 d5 0e 3e 3c 82 fc bd 52 76 4f 3e
       0.087868325 0.13948779 -0.12329528 0.2025998
000060 c6 1f 37 be a0 dc 53 3e 0a 50 01 be c7 e8 99 3d
       -0.17883214 0.2068963 -0.12628189 0.07515102
000070 43 3b 1e 3e e5 c4 47 be 4e a7 3c be 4c dc e2 bd
       0.15452294 -0.19508703 -0.18423197 -0.110771745

classifier.0.weight f4 [32, 64]
000000 bc 00 c3 ba bf 63 0d bd 49 02 8f bd c6 e6 88 3d
       -0.0014877538 -0.034518953 -0.06982858 0.066846415
000010 ee c7 89 bd 84 77 dc 3d f4 0a 8b bd f9 3c 8b 3d
       -0.06727587 0.10764983 -0.067891985 0.06798739
000020 b2 6c f8 3d 3d fe 92 3d 13 42 37 3d 7d d8 20 3c
       0.12130107 0.07177398 0.044740748 0.00981724
000030 37 77 a4 3d 55 60 82 3d ca 73 a3 bd 1f 2b de 3a
       0.08030551 0.0636603 -0.079810694 0.0016950107
000040 d8 cb d8 bd f0 84 c9 3d c7 6a 50 bd 33 86 ca bd
       -0.10585755 0.09839809 -0.05088308 -0.09888878
000050 57 98 8f bd 84 70 c8 3d 44 af 8c 3d 68 e1 a9 3d
       -0.070114784 0.09787086 0.06869367 0.08294946
000060 fc b6 c8 3c 52 29 cd 3d 38 68 c8 bc f5 26 7d 3c
       0.024501316 0.10017647 -0.024463758 0.015451183
000070 24 3d 11 3d 72 89 dc bd 50 ea d9 3d 88 55 30 3d
       0.0354587 -0.10768403 0.10640395 0.04305032
000080 60 50 33 3d 9d 20 ae bd ae dd ad bd 12 f9 b5 bd
       0.043777823 -0.08502314 -0.08489548 -0.08885397
000090 db 96 3e bd d4 f5 81 3c c0 e3 ae 3d df 95 99 bd
       -0.046530586 0.01586429 0.085395336 -0.07499289
0000a0 3e 9e 86 3c c1 31 ab bd 7d c8 37 bd b5 82 0b bb
       0.016432878 -0.08359099 -0.044868935 -0.0021287624
0000b0 2b 4c 96 bd f7 22 77 3d be 12 e5 3c 30 44 ab bd
       -0.07338747 0.06033608 0.027963039 -0.08362615
0000c0 08 13 d5 3c b0 2a 23 bc 27 d5 f3 3d 25 6e cf bd
       0.026010051 -0.009958908 0.1190589 -0.1012843
0000d0 c2 ff 90 3d 67 e6 a8 bd 04 af 42 bd 4d 69 b9 bd
       0.07080032 -0.08247071 -0.04753019 -0.09053288
0000e0 10 4d ff 3d bf 8f b4 bc 04 c9 60 bd 25 79 88 3d
       0.124658704 -0.0220412 -0.054879203 0.066637315
0000f0 76 a9 01 bc ef ec c6 3d c4 76 b9 bd 06 47 94 bc
       -0.007913938 0.0971316 -0.09055856 -0.018100273
000100 7c 4c 86 3d 25 c7 3c 3c b3 4a e0 bc 5c ba 56 bd
       0.06557557 0.011522089 -0.02737937 -0.05242382
000110 78 ef da 3d 79 09 ee bd e7 0d d3 3d 40 85 c0 3d
       0.10690206 -0.116229005 0.10305386 0.094004154
000120 1d 4f 22 3c 01 be 9b 3b fd 2d eb bd a3 19 e3 3d
       0.009906557 0.004752875 -0.11483381 0.11088874
000130 e1 dd e3 bd af 5d 96 bd 34 96 ef 3d 22 bc 42 bd
       -0.111263044 -0.073420875 0.11698571 -0.0475427
000140 36 bc ba 3d f8 0a c0 bc d3 45 9f 3d 5e 9a 4e 3d
       0.0911793 -0.02344273 0.0777699 0.050440185
000150 47 9d 1a 3d 2b ff de 3d de 00 b8 bd 0a a2 37 bd
       0.037747648 0.10888513 -0.089845404 -0.044832267
000160 fb ce 75 bd dc 0a db bd 14 13 1f 3d 91 28 85 bd
       -0.060011845 -0.10695431 0.038836554 -0.06501878
000170 6f f8 c7 bd 44 84 be 3d 84 11 d2 bd 30 84 ff bc
       -0.09764182 0.093025714 -0.10257247 -0.031190962
000180 c3 da 84 3d c1 e3 57 3d 5d bb d4 3c c8 5d fd 3c
       0.06487038 0.052707437 0.025968248 0.030928507
000190 15 86 8b 3c ea 68 cf bd ce af 79 3d 1e 61 d9 3d
       0.017031709 -0.10127433 0.060958676 0.10614227
0001a0 86 31 37 3d 05 06 76 ba cc 7d ec 3d 6a 17 08 3c
       0.044724964 -0.0009385052 0.11547431 0.008306364
0001b0 fa 11 90 bd 0d f0 c1 bd 3c 3a b5 bd 1e 39 ce bd
       -0.07034679 -0.09469614 -0.08848998 -0.10069488
0001c0 72 62 a5 bd 46 7a ac 3d 74 d2 e5 3d 2d cf 39 3d
       -0.080754176 0.08421759 0.112217814 0.045363594
0001d0 29 45 71 bc 44 2d c0 3d 2e db fb bd cd 18 77 3d
       -0.014725962 0.09383634 -0.122976646 0.060326386
0001e0 76 31 f0 3d cd 84 d1 3d c0 a7 ae bd 80 a9 ca 3d
       0.11728184 0.10230408 -0.085280895 0.09895611
0001f0 2e 21 1c 3b bd 19 7f 3d 6c ac ff 3d 09 47 18 bc
       0.0023823488 0.062280405 0.12484059 -0.00929428
000200 f9 f0 ed 3d 37 f9 58 bd 44 56 a0 bd a4 2e 14 3d
       0.116182275 -0.052972045 -0.07828954 0.036177292
000210 d2 89 9c 3c 5c 48 6c 3d 91 98 2b bd f7 54 f1 3b
       0.019108687 0.057686195 -0.041893546 0.007364865
000220 ae 6d bf 3d 8b f3 a3 3d 72 23 4e bd e6 b5 66 bd
       0.093470916 0.080054365 -0.050326772 -0.056325816
000230 1c a3 04 3d ba 6e 96 bd cb 19 ea bd bf ab f2 bd
       0.032382116 -0.07345338 -0.11430701 -0.11849164
000240 5c c4 60 3d 02 9e ba bd bb bc d0 bd 10 c4 f0 3d
       0.054874763 -0.09112169 -0.101922475 0.11756146
000250 f0 03 a8 bd 4e 4c da bd 10 0c 8d bc 04 11 ab bd
       -0.08203876 -0.10659085 -0.017217666 -0.08352855
000260 41 19 a2 bd 73 66 c5 3c f4 9c d4 bd c4 f0 5d bd
       -0.07914973 0.024096703 -0.10381499 -0.05418469
000270 fc 9f 90 3c e9 68 ae 3d 92 3e cd bd ee b7 5a bd
       0.017654411 0.08516104 -0.100217 -0.053398065
000280 a8 da e0 bc 86 47 e0 bd db e6 1a 3d 50 e6 4a bc
       -0.027448013 -0.10951142 0.037817817 -0.012384012
000290 d8 be ac 3d db 65 f5 3d 65 6e 34 3d ce 9d af bd
       0.08434838 0.11982318 0.044050593 -0.08575021
0002a0 e8 aa 81 3c a1 ce 00 bc 85 5f c9 bd 0d e7 ae bd
       0.015828565 -0.007861764 -0.09832672 -0.08540163
0002b0 d7 a0 51 3d 3d 77 a8 bd bd 1e b4 3d 48 c3 fd 3d
       0.05117878 -0.08225868 0.08794925 0.123907626
0002c0 fc 59 db 3d 48 4f 23 3d 56 c1 ac 3c b5 21 a8 bd
       0.107105225 0.03987053 0.021088284 -0.08209554
0002d0 a0 c2 14 bc e0 4e 93 bc ca 84 f2 bd 59 3b d1 3c
       -0.009079605 -0.017981946 -0.11841734 0.025540994
0002e0 b1 ca 15 3a fb 1c 5f 3d 30 2b 5b 3d da 4f 08 bc
       0.00057141023 0.054470997 0.053507984 -0.008319819
0002f0 29 91 8b 3c a2 33 b1 3d 80 a5 17 bd 2b b0 71 3d
       0.017036991 0.08652426 -0.037023067 0.059005897
000300 25 eb 50 bd 71 a1 bc 3d ac 28 ce 3d 9c 24 73 bd
       -0.0510055 0.0921048 0.10066351 -0.059361085
000310 ed ce 7c 3d c3 5b 72 bc 77 ae db 3d fa a2 66 bd
       0.061720777 -0.0147923855 0.10726636 -0.05630777
000320 c2 83 51 bd 9e f6 95 3d d6 3f d8 bd 1b 09 69 3d
       -0.051151045 0.07322429 -0.10559051 0.05689345
000330 a8 a1 d2 3d d6 4e 00 3d 5c 3c a3 3d cd 91 e2 3c
       0.1028474 0.031325184 0.07970497 0.027657414
000340 a8 81 e8 3d 5c e2 c1 3d e4 e9 f2 bd f6 03 3b bd
       0.11352855 0.09467003 -0.11861017 -0.045658074
000350 23 1a 7e 3d 3a 8a a6 3c 98 8f 5f 3d 42 4d 43 bc
       0.062036645 0.020329583 0.0545803 -0.011920275
000360 f1 47 eb bd 55 3a ca bd 16 cc ff bd 77 d1 92 bb
       -0.11488331 -0.09874407 -0.12490098 -0.0044805366
000370 24 e5 6b 3d 0a 7a 49 bc dc 20 17 bd 77 57 a9 3c
       0.057591572 -0.012297163 -0.03689657 0.02067159
000380 1f 93 1e bd 42 68 f3 3c 9f 5b bf 3c 5a c8 b0 bd
       -0.038714524 0.0297128 0.023359118 -0.08631964
000390 01 1b 0b 3d 64 b2 e1 3b 7e 64 28 bd 92 70 58 3d
       0.0339613 0.006887721 -0.04111146 0.05284173
0003a0 87 a2 15 3d de 61 60 3d 02 bd 09 bd cc 8f 07 bd
       0.03653195 0.054780833 -0.033627518 -0.03309612
0003b0 e0 56 09 bd 10 44 c8 3b 63 d0 bf 3d 92 b5 d2 3d
       -0.033530116 0.0061116293 0.093659185 0.10288538
0003c0 70 46 aa bd 98 4a a7 3c 8a 05 30 bc 25 96 3c 3d
       -0.08314216 0.020421311 -0.010743508 0.046041626
0003d0 03 1e e0 bc 6c bd 16 bd cc de 6c 3d af 2f e2 3d
       -0.02735806 -0.03680174 0.057829663 0.11044251
0003e0 1d a5 9e bd 9e 00 5a 3d 94 72 8a 3d f6 d4 9c 3d
       -0.077463366 0.053223245 0.06760135 0.076578066
0003f0 15 8f 5e 3d 6c 9f b9 3c 44 cd f5 bd 7c f4 e2 bc
       0.054335672 0.022659026 -0.12002042 -0.02770447

classifier.0.bias f4 [32]
000000 7d 43 90 bd 9c aa a4 bd 9f 38 8f 3d 17 90 be ba
       -0.07044122 -0.08040354 0.069932215 -0.0014538792
000010 75 8f 07 bd 86 b9 55 3d b8 b2 c6 3d b5 8c 9b bd
       -0.033095796 0.052178882 0.09702057 -0.07595197
000020 62 50 ed 3d a6 b1 a6 3d 48 a9 97 bd 38 2a 49 bd
       0.115875974 0.081393525 -0.07405335 -0.04911253
000030 04 a7 e7 bd 5c 72 75 bd c4 b9 6e bd 9b 52 6a 3d
       -0.113111526 -0.059923515 -0.05828263 0.057207685
000040 6e 05 da bd d0 96 5e 3d 43 af c5 3d 85 3e 4a bd
       -0.10645567 0.054343045 0.09652569 -0.04937603
000050 a0 4e 5c bd 5f 14 89 bd 1e c5 c8 bd 7f 61 a9 3d
       -0.05378592 -0.066933386 -0.09803222 0.08270549
000060 43 d5 f8 3c 4f fd b3 3d 8d 13 d9 3d 10 fe 8a bd
       0.030375129 0.08788549 0.10599432 -0.0678674
000070 ea 46 61 3c 9e a7 21 3c a8 5a 5f 3d 7a f6 c2 bd
       0.013749817 0.009866623 0.054529816 -0.09519668

classifier.2.weight f4 [16, 32]
000000 09 46 08 be 14 b6 0d be 38 a8 1c be 4c b8 cd 3d
       -0.13307966 -0.13838989 -0.15298545 0.100449175
000010 8a 52 36 3d c0 d4 d6 bd e1 e1 88 bd e7 a5 cc 3d
       0.04451231 -0.104897976 -0.06683708 0.09992581
000020 83 7f 18 3e e1 c2 2d 3e 30 03 8d 3d 80 3f b5 ba
       0.14892392 0.16968872 0.068853736 -0.0013828129
000030 8a 9e e2 3d f2 ac 0f be c4 52 48 3d c1 a8 9a 3d
       0.11065395 -0.14030817 0.048907056 0.075517185
000040 7d 79 05 3e 2f ec 11 3e c1 1e 0d 3e 06 e7 d8 3c
       0.13034625 0.14250253 0.13781263 0.026477348
000050 4c 74 d5 3d db f0 04 3e 3a b2 a6 3c a3 b0 8e 3d
       0.104225725 0.12982504 0.020348657 0.069672845
000060 69 a7 10 3e 42 3f 94 3c d9 2c b2 bd 2c 9c 0c 3e
       0.14126362 0.01809657 -0.0869996 0.1373145
000070 6b 5b 9c bd fb f0 7f 3d cf 3e e8 3d f0 76 88 3d
       -0.07634624 0.062485676 0.11340105 0.066633105
000080 cf 51 1b 3e 47 bf a2 3d 4d 9c 9f bd cf 28 17 be
       0.15167926 0.079466395 -0.07793484 -0.14761661
000090 e5 dd 27 bd 11 ae c6 3d aa f9 60 3d 51 82 df 3c
       -0.0409831 0.09701169 0.0549256 0.02728382
0000a0 3e d4 7c 3d 86 02 10 3e f1 90 04 be 64 68 5a 3d
       0.061725847 0.14063463 -0.12945916 0.05332221
0000b0 02 2b b9 3d e7 07 0f 3e 48 d3 87 3d bd e5 2d 3e
       0.09041406 0.13967858 0.066320956 0.1698217
0000c0 e7 e6 03 3e 02 51 ef 3d b1 7b 11 be 27 bd c7 3d
       0.12881051 0.11685373 -0.14207341 0.09752875
0000d0 fd 3f 13 3d f0 d2 98 3d 9c 4a 45 bc 79 ec bc bd
       0.035949696 0.07462108 -0.012041714 -0.09224791
0000e0 61 bd 04 3e 55 ec e1 3d 8e 3d 1d be 4a 90 5a 3d
       0.12962867 0.11031405 -0.15355512 0.05336026
0000f0 70 45 1b be 32 99 aa 3d a3 8e 80 3c 85 bb 1b 3e
       -0.15163207 0.08330001 0.015693014 0.15208252
000100 b4 c0 2c 3e 87 75 bc bd 83 f0 2e 3e 71 85 db 3d
       0.16870385 -0.09202104 0.17083935 0.10718811
000110 78 63 36 be 5c c2 e3 3d 20 bf 59 3d 49 bd 77 3d
       -0.17811382 0.111210555 0.053160787 0.06048325
000120 75 29 1b be 7b 0f dd 3d bd df f5 bc 21 cd d2 bd
       -0.15152533 0.10793968 -0.030013913 -0.102930315
000130 b0 31 37 3d 66 fa b4 bd bd 18 80 bd 3a 54 25 be
       0.04472512 -0.08836822 -0.062547185 -0.16145411
000140 8e 3b 29 3d 12 e4 c4 3d d4 94 a9 3d df ec fa bd
       0.04131656 0.096138135 0.0828034 -0.12252211
000150 37 64 59 3c 95 cb 4e bd 4b 66 05 be 48 5f 08 be
       0.013268522 -0.05048712 -0.13027303 -0.13317597
000160 13 f2 9a 3d cb 29 c7 3d 48 b0 63 3d 6b 48 1f 3e
       0.07565703 0.09724768 0.055588037 0.15554969
000170 7b 9c 32 be 4c fb 34 bc 62 2d 7a 3d 12 10 c4 3d
       -0.17442505 -0.011046242 0.061078437 0.09573378
000180 20 e6 17 be f8 d8 f3 bc e8 98 64 bd 09 b6 28 3e
       -0.1483388 -0.029766545 -0.055809885 0.16475691
000190 46 a7 b3 bd 04 9a 39 3d 84 21 12 be 31 ea 12 3e
       -0.08772139 0.045312896 -0.14270598 0.1434715
0001a0 64 fc 32 be e1 23 11 3e 7b fb 12 3e 29 a5 06 3e
       -0.17479092 0.14173843 0.14353745 0.13148941
0001b0 80 13 40 3d e9 00 ac bd 3a 61 78 bd 80 85 72 bd
       0.046893597 -0.08398611 -0.060639597 -0.059209347
0001c0 74 31 24 bd 68 d2 9c bd 00 ca cb 39 b6 c0 fc 3d
       -0.040086225 -0.07657319 0.0003886968 0.12341444
0001d0 25 ce 0c be 9e 0a e9 3d 80 00 0b bc 9b 77 cd bd
       -0.13750513 0.11378978 -0.008484006 -0.100325786
0001e0 e6 e3 fc 3d 0c 28 8a 3d 49 ed c2 bd 00 6b 8b 3c
       0.12348156 0.067459196 -0.09517915 0.017018795
0001f0 26 34 9c 3d bb e7 d7 bd 58 6c 7b 3d 3e 8c 04 be
       0.07627134 -0.10542246 0.06138262 -0.12944123
000200 58 27 18 be 6c a7 15 3e 76 5b d9 3d 7e ff 21 3d
       -0.14858758 0.14614648 0.10613148 0.039550297
000210 75 b1 b1 bd aa 69 2b 3d 1b 55 23 3d 9c 3c 50 bd
       -0.08676425 0.041848816 0.039876085 -0.05083905
000220 3f 25 e0 bd b5 70 c8 3d 87 7d 11 3d 29 3f 01 be
       -0.10944604 0.09787122 0.035520103 -0.1262175
000230 d2 be 88 3d ce 4c e0 3d 8a ba e2 3d 28 cd 1b be
       0.06677021 0.10952149 0.11070736 -0.1521498
000240 f9 9d e8 bd 0d aa dc bd 41 fe a5 3b 50 b0 93 bd
       -0.11358256 -0.10774622 0.00506571 -0.07211363
000250 4c 42 e7 bd 05 ed 1e 3d 17 cd 89 bd be 44 89 bd
       -0.11291942 0.03880026 -0.06728571 -0.06702565
000260 a5 24 57 bd 2e 84 1b be 29 f9 cf bd d5 b2 f0 3d
       -0.05252518 -0.15187141 -0.101549454 0.117528595
000270 3b 0b 45 3c 01 76 08 3e 53 66 00 be 50 46 61 3c
       0.012026603 0.13326265 -0.12539034 0.013749674
000280 db 87 19 be 38 2a 3a 3d c8 13 1e bd 98 0a 19 bd
       -0.14993231 0.04545042 -0.038593084 -0.03736362
000290 9c b5 86 bd e8 2b ce 3c 9e 2c 06 be 40 a6 e6 bc
       -0.06577608 0.02516742 -0.13102958 -0.028155446
0002a0 30 d1 25 bd a6 d1 f7 3d 94 d8 77 bd 90 da c8 bc
       -0.0404827 0.12100534 -0.06050928 -0.024518281
0002b0 fc e5 49 3d e7 e2 1c 3e ab 88 04 3e 28 fd 19 bd
       0.049291596 0.15320931 0.1294276 -0.037594944
0002c0 46 f9 79 bd bc bf 00 bd f6 fa db 3d 40 3a ab 3c
       -0.06102874 -0.031432852 0.107412264 0.0209018
0002d0 16 d0 c3 3d 35 24 8b bd 8f 91 1a 3e f8 6a 82 bc
       0.095611736 -0.06794015 0.15094589 -0.015920147
0002e0 80 ca 32 be bf 78 ea bd 12 96 92 3d 2a b6 0f be
       -0.1746006 -0.11448812 0.0715753 -0.14034334
0002f0 25 34 23 be 7e 61 fd 3d 07 9c 2f 3e cc 2c 4a bd
       -0.1593786 0.12372111 0.17149363 -0.049359128
000300 ad e4 10 3e 82 96 80 3d d2 4d df 3d e8 eb 92 3d
       0.14149733 0.06278707 0.10903515 0.07173902
000310 b7 e4 25 be 50 c9 64 bc d8 e4 03 be b4 cf a4 bd
       -0.16200529 -0.013964012 -0.12880266 -0.08047429
000320 08 de 81 3d 81 6c d1 bd b0 cf 32 3d 00 6b f2 ba
       0.06341177 -0.102257736 0.043655097 -0.0018495023
000330 03 fe 07 3e 34 ce 04 3d 42 17 32 be a2 21 e9 bd
       0.13280492 0.032423213 -0.17391685 -0.11383368
000340 12 e2 a6 3d 7e b7 c6 bd 66 f5 ab 3d a6 dd b2 bd
       0.08148588 -0.09702967 0.083964154 -0.08733682
000350 0d f3 30 3e 7a 8d ae 3d 4d fa 92 bd 10 05 23 be
       0.17280217 0.08523078 -0.07176647 -0.159199
000360 e0 91 e9 bb 78 9f 08 be a8 1e bc bc 70 0a 87 3c
       -0.0071279854 -0.13342083 -0.022963837 0.01648447
000370 ec c5 c6 bd 48 ff 2f 3d f9 c1 27 3e 04 64 1b be
       -0.09705719 0.042968065 0.16382588 -0.15174872
000380 9d ba 29 3e ef 03 27 be 18 1f 7c 3d 1a b4 be 3d
       0.16575094 -0.16310094 0.06155309 0.093116954
000390 66 b0 a8 3d f6 ff f1 3d c5 75 99 bd 02 fe 2e be
       0.0823677 0.11816399 -0.07493166 -0.17089084
0003a0 0f 24 04 be bb 08 1f 3e 0b 41 2a 3e 08 14 66 3d
       -0.1290438 0.15530674 0.16626374 0.056171447
0003b0 fc ce 14 be 58 b2 87 bd 21 44 fe bd 31 10 20 be
       -0.14532083 -0.06625813 -0.12415338 -0.15631177
0003c0 62 30 8f 3d f2 4d ef 3d d5 b5 2a 3e be 45 ee 3d
       0.0699165 0.11684789 0.16670926 0.11634396
0003d0 02 1d e6 bd 60 7c 36 3d 68 01 2f bd 06 55 f8 3d
       -0.112360016 0.044552207 -0.04272595 0.12125592
0003e0 c3 00 11 3e 04 56 36 3d b6 0e 8e 3d c8 85 0b 3d
       0.14160447 0.044515625 0.069364 0.03406313
0003f0 b0 fe 24 be 44 14 2b 3d 4c b1 4c 3d 74 7c 63 3d
       -0.1611278 0.041767374 0.04997377 0.05553861

classifier.2.bias f4 [16]
000000 01 ee bd 3b f3 df d3 3c ec 3f 01 3e de cc bc bd
       0.0057961945 0.025863623 0.1262204 -0.09218763
000010 a1 32 20 3d 07 ef 07 be e4 5b a6 bd 07 81 eb bd
       0.039110783 -0.13274775 -0.081229955 -0.114992194
000020 7c f6 5c 3d bb 36 86 3d 30 c4 6a 3c 34 f9 03 bd
       0.053946003 0.06553408 0.014329001 -0.03222008
000030 14 10 e9 bd da df b1 bd ed 01 2c be 10 a3 b8 3d
       -0.1138002 -0.086852744 -0.1679761 0.09015477

classifier.4.weight f4 [8, 16]
000000 c0 c3 e7 bb 2c ea d7 bd c2 f5 43 3e e0 43 4e bd
       -0.0070728958 -0.105427116 0.19136718 -0.0503577
000010 80 40 20 3d 7c b5 8c 3d 8c 63 72 3e 8a 68 3b 3e
       0.039124012 0.06870553 0.23670787 0.18301597
000020 78 68 95 bd 54 3a 6e 3e 7a 87 44 be 94 55 ef 3d
       -0.072953165 0.23264438 -0.19192305 0.116862446
000030 30 3f 37 be e8 d5 9a 3d d0 88 77 3d a2 f7 46 3e
       -0.17895198 0.07560331 0.06043321 0.19430402
000040 43 d1 1a be 96 14 ac 3c cf e6 01 be 24 b1 02 be
       -0.1511889 0.02100591 -0.12685703 -0.12762886
000050 af bb c5 3d c2 d5 4a 3e 26 1c 5c 3e a8 8a 5e 3e
       0.096549384 0.19808105 0.21495113 0.2173258
000060 74 e1 bc bd 60 d6 f9 3d 06 1f 0c 3e a0 e1 a7 3c
       -0.09222689 0.12199092 0.1368371 0.020493329
000070 6b c3 72 3e b0 4b c9 bd b0 20 f8 3d 86 17 06 be
       0.23707359 -0.09828889 0.1211561 -0.13094911
000080 2f 84 25 be 9f 14 7d be 40 39 ee bc dc 80 f5 bd
       -0.16163705 -0.24714898 -0.029080033 -0.119874686
000090 83 88 17 3e 20 37 5a bc 32 88 21 be 00 09 e4 3c
       0.14798169 -0.013318807 -0.1577461 0.027836323
0000a0 3c 56 0f 3d 47 94 b1 3d d8 62 d3 bd 2e c8 23 3e
       0.03499435 0.0867086 -0.10321587 0.15994331
0000b0 68 a2 13 3e 80 d6 bc bb 00 99 0d bc e5 51 fa bd
       0.14417422 -0.005762875 -0.008642435 -0.122226514
0000c0 c8 e0 74 be 45 90 e5 bd 51 14 5d bd e8 df 67 3d
       -0.23913872 -0.11209158 -0.053974453 0.056610018
0000d0 12 2c 9a bb 88 9e 92 bd 50 5c 0d be 24 84 0f 3e
       -0.0047049606 -0.07159144 -0.13804746 0.14015251
0000e0 0f d8 77 3e a3 73 60 bd 58 2b 03 be 4e 78 30 3e
       0.24203514 -0.05479778 -0.12809503 0.17233393
0000f0 47 95 f6 bd f4 7b 6e be 02 cd 65 3e 73 90 23 3e
       -0.12040191 -0.23289472 0.22441486 0.15973072
000100 9a 6d 75 be 2a 36 25 3e c8 3e 3e be c8 1f d8 3d
       -0.23967591 0.16133943 -0.18578637 0.10552937
000110 44 27 d0 bd 02 a7 12 3e b6 02 0a be ce 38 16 3e
       -0.10163739 0.14321521 -0.13477597 0.14670107
000120 58 26 5a bd f0 e2 4a bd 5c be d3 3d f6 cb 06 3e
       -0.053259224 -0.04953283 0.103390425 0.13163742
000130 6e 9f 4c be 78 91 06 3e 1a 0d 1b 3e 3a fd 16 be
       -0.19982693 0.1314143 0.15141717 -0.14745036
000140 d4 68 ee 3d 10 ea 4c bd c8 53 37 bd a4 1f 6d 3e
       0.11641088 -0.050027907 -0.044757634 0.23156601
000150 b0 62 3b 3e 64 97 8a 3d d4 3c a7 bd de 7f 66 3e
       0.18299365 0.06767157 -0.08165899 0.22509715
000160 0e e3 3f 3e 48 0a 6b be 84 13 da bd ba 0c 41 be
       0.18738958 -0.2295314 -0.106482536 -0.18852511
000170 94 ed d3 3d 90 40 eb 3c 54 2a 0f be 50 60 31 3d
       0.10348049 0.02871731 -0.1398099 0.04330474
000180 dc fa 94 3d 90 2c a9 3d d0 58 df bd 24 99 a5 3d
       0.0727441 0.08260453 -0.109056115 0.0808585
000190 fa 13 6d 3e ba fc 22 be 00 fa 03 ba e4 3d f4 bd
       0.23152152 -0.1591672 -0.00050345063 -0.11925867
0001a0 7e 18 2c be 1e f5 19 be 38 88 80 3d 34 41 e5 bd
       -0.16806218 -0.15034911 0.06275982 -0.11194077
0001b0 00 0a 86 3d 6c 2c 7a be c2 3a 62 be a8 ad 15 be
       0.06544876 -0.24431008 -0.22092727 -0.14617026
0001c0 9e f4 25 3e 68 89 4f 3e 78 9f aa bd 6e 84 3c 3e
       0.16206595 0.2026726 -0.083311975 0.18409893
0001d0 50 1a d4 3d 00 69 bf bb 80 cd 12 bc e6 d2 1d be
       0.10356581 -0.0058413744 -0.008960128 -0.15412483
0001e0 a0 15 25 bc 62 bc 79 be b0 7b 09 3d 9a 4e 32 3e
       -0.010075957 -0.24388269 0.033565223 0.17412797
0001f0 dc 2f 58 3e 00 1d af bd d8 1f 75 3d a0 64 bd bc
       0.21112007 -0.08550453 0.05984482 -0.02311927

classifier.4.bias f4 [8]
000000 74 d3 17 be d9 63 ed 3d 47 7e 1a 3d a1 4f 67 3e
       -0.14826757 0.1159131 0.037718084 0.2258897
000010 ce 79 5e be 2c 81 01 be e4 d6 38 be 12 2f 20 be
       -0.21726152 -0.12646931 -0.18050724 -0.15642956

classifier.6.weight f4 [1, 8]
000000 f3 a7 48 be 22 f6 05 bd 22 3e 82 be 5b a4 31 3e
       -0.19595318 -0.032705434 -0.2543803 0.17347853
000010 d2 58 39 be 03 18 b0 3e f1 32 8f 3e ea 4d 68 3e
       -0.18100289 0.3439332 0.27968553 0.22685972
